Q1/net.pth (torch, 4671 bytes, 8 tensors)

rnn.weight_ih_l0 f4 [32, 7]
00000000: fa3c a83f 8618 b23f f558 af3e 7b96 963e
00000010: 2ccf 8ebe f5bf 893e 8c38 a83f 3eb3 0240
00000020: fe78 723f d16e 923f e037 173f 09c9 233f
00000030: 5632 da3b e87a 1e35 1583 903f fd4a e0bf
00000040: 4fed aabf 381d 0f3e 0297 803f 599b d83f
00000050: a1a6 80bf b67a a8bf 5ce4 0bbf e6f0 783e
00000060: afac 88be 02e1 f43d 6448 ce3e 1510 f73f
00000070: c479 af3f 4e54 e63e b348 0e3f 249b 433e
00000080: d6c0 86bc 5653 813e e159 1040 a11e 28c0
00000090: a2f5 5cbf 863d 06bf 9f1c bc3e c155 8e3e
000000a0: 418a 0f3e bdd9 603f d8b6 673f 60c7 093c
000000b0: 03ab 8d3d edd6 fe3e 6e6b bb3e a0c1 59bf
000000c0: dd5c fdbd 03c7 adbf 9fc8 abbf ec32 cf3e
000000d0: 06e8 693f 374c ae3f 71ad 633c fa56 3dbf
000000e0: 0b66 74c0 7881 243f d789 6abf 4928 803f
000000f0: 2dce 073f fbe2 bbbe 3720 2dbf 5187 d43f
00000100: dd2d 433f c7d3 9b3f 03df 5e3e b559 143f
00000110: 908d f4be 6799 69bf 8734 2cc0 c1df 0bbf
00000120: fc3c 9a3f fde3 b5be eabe 17bf 19dc b23f
00000130: 9b0b b73f ec39 c7bf 3e51 b3be c945 763e
00000140: 351b f63e f5d7 363e 26df 883e 65e2 aebe
00000150: 6149 2e3f 51a6 e33e b9af 443e d036 bebd
00000160: 7cef ad3e d447 ac3d 3278 093f a5e4 babc
00000170: 4846 663f 4def 7cbf 7bfe 23be f849 8f3e
00000180: e4b5 26bf 602f 793d ceb3 163f ca17 08bf
00000190: db47 22bf 3595 90be cd5a 5bbe ccfc d8bc
000001a0: e6a5 bfbe 98c3 4b40 0a27 d8bf 127f 81bf
000001b0: 55e9 ca3e bb7b f63e 4562 d03e 86fe b1be
000001c0: 5d13 2ebe b3f2 5cbf 3fe4 c9be 4de8 5ebf
000001d0: 42fd 4a3f 3702 043f a46a fc3e bac2 04c0
000001e0: 59a8 9dbe a3ce 083f 8f88 9bbe d280 5d3f
000001f0: 2170 a43f 232e 653f c10f 7f3c 481f d83e
00000200: bbd8 9bbe 2a7a 66bd 66fa 4e3e 64ed 8f3f
00000210: ab52 233e bdd7 2fbf c137 15be adaa e83e
00000220: a060 993d 2786 32bc 214f 203f ac26 9cbf
00000230: e016 b2bf f7a0 a13e 8ed8 a0be cda5 c1be
00000240: e220 afbe 6b60 ddbe 0423 b3bf 038f 343f
00000250: 514d 5dbf 9b2c 27bf 7904 b63e d36e 563f
00000260: 5dbb 2a3f f00b 2ebf 6cf1 28bf f307 0cbf
00000270: d426 1fbf 88b4 56bf 23f5 63be 3e04 21bf
00000280: 224c 1fbf 5d7d 16c0 04ff 1b3f b135 383e
00000290: 9e1a b3be c236 14bf f9a1 9cbf 677c df3f
000002a0: 54c2 87bf 2d48 bcbf fc17 23bf e050 96be
000002b0: 11d9 043f 5946 2d40 6e12 4440 27f8 db3f
000002c0: e326 1440 aec8 f83e 789a 43bf 2483 723f
000002d0: 25cb 0fbe 3d80 60be 129e b0bf e2a8 b03e
000002e0: 25e5 b23e 5031 733f 1be3 593f d9d7 bfbe
000002f0: cf5d c7bf 8168 05c0 8ce2 223e 30c1 6fbd
00000300: 57b4 a53e 7c69 b73e a2cf 8e3f 7871 3640
00000310: 96b0 863d 8d7b a43f 91ad ac3f 1795 583f
00000320: 2569 aa3e 528b 5ebf 6edc 793f aaad aebe
00000330: 4281 89bf 71a2 1fc0 ad4d 123f 9efc 1f3f
00000340: ba7e c13f aa98 0d40 89a7 f4bf 171c 00bf
00000350: e0bc 28bf 6419 463f f113 0a3f 703e 9e3e
00000360: c8a1 133f b74f acbd 4e25 32c0 bf06 503c
00000370: 4661 523f f7ef 913e cf03 9cbe 3454 343d
1.3143609 1.3913734 0.34247556 0.29411682 -0.27892435 0.26904264 1.3142257 2.04219
0.9471587 1.1440068 0.59069633 0.6397863 0.0066588325 5.903844e-07 1.1290003 -1.7522885
-1.3353671 0.1397599 1.0046084 1.6922408 -1.0050851 -1.3162448 -0.54645324 0.24310645
-0.26694247 0.11956979 0.40289605 1.9301783 1.3709035 0.44986194 0.5557968 0.1910215
-0.016449373 0.25258893 2.2554858 -2.6268694 -0.86312306 -0.5243763 0.36740586 0.277998
0.14017583 0.8783224 0.9051337 0.008409351 0.069173835 0.4977335 0.366054 -0.85061073
-0.12371228 -1.3576359 -1.34206 0.40468538 0.91369665 1.3617009 0.013896332 -0.7396084
-3.8187282 0.64260054 -0.91616577 1.0012294 0.53048974 -0.3669661 -0.6762728 1.6603795
0.76241857 1.2174004 0.2176476 0.5794938 -0.47764254 -0.912497 -2.690706 -0.54638296
1.2049861 -0.35525504 -0.59275687 1.3973418 1.4300417 -1.5564551 -0.3502292 0.24050058
0.48067632 0.17855819 0.2673275 -0.341571 0.6808072 0.44462827 0.19207658 -0.092877984
0.33971775 0.08412138 0.5369903 -0.022814104 0.8995099 -0.98802644 -0.16015045 0.2798612
-0.65121293 0.060836196 0.5886811 -0.531613 -0.6339089 -0.28238836 -0.21421356 -0.02648773
-0.37431258 3.183813 -1.6886914 -1.0116904 0.39631143 0.48141274 0.40699974 -0.34764498
-0.16999574 -0.8630783 -0.3943195 -0.8707321 0.7929269 0.5156588 0.4930011 -2.0743852
-0.30792502 0.534403 -0.30377623 0.8652469 1.2846719 0.89523524 0.015567721 0.42211366
-0.3043879 -0.05626885 0.20212707 1.1244321 0.15949504 -0.68688565 -0.1457205 0.45442715
0.07489133 -0.010896242 0.6262074 -1.2199302 -1.3913231 0.3156812 -0.31415218 -0.37821808
-0.34204775 -0.43237624 -1.3995061 0.7053072 -0.864461 -0.6530244 0.35550287 0.83762854
0.66692144 -0.67986965 -0.6599338 -0.5469963 -0.6216862 -0.8386922 -0.22261481 -0.628971
-0.62225544 -2.3514016 0.60936 0.17989232 -0.34981245 -0.57896054 -1.223693 1.745984
-1.0606179 -1.4709526 -0.6370847 -0.29358578 0.5189372 2.7074187 3.0636249 1.7185105
2.3148735 0.48590606 -0.76407576 0.94731355 -0.14042337 -0.21923919 -1.3798239 0.34503847
0.34940448 0.9499712 0.8511216 -0.37469366 -1.5575503 -2.0845034 0.15906733 -0.058533847
0.3236415 0.35822666 1.1157115 2.8506756 0.0657665 1.2850205 1.3490468 0.84602493
0.33283344 -0.86931336 0.97601974 -0.3411687 -1.0742571 -2.4942896 0.57149774 0.6249484
1.5116799 2.2124429 -1.9113628 -0.5004286 -0.659132 0.77382493 0.5393668 0.3090701
0.57668734 -0.08413642 -2.783527 0.012696921 0.8217968 0.2850339 -0.30471656 0.044025615

rnn.weight_hh_l0 f4 [32, 8]
00000000: 2b42 423f 2a44 153f 4a07 e23f ccf5 b8be
00000010: 3a3f 15bf b396 0ec0 b291 abbf 6787 5a3f
00000020: fc43 033e 0cb6 95be 024a 473f b746 ecbe
00000030: 1298 e4bd e253 843e 3494 aabe a201 99be
00000040: 61a2 a33f d099 bcbf 82c7 3b3f ea8a 14bf
00000050: 41a8 a2bf 03ab 163e 0bf7 efbf 9244 76bf
00000060: 0895 fbbe 2fc4 f3be 729d 99be 47e5 e13d
00000070: f9c6 8e3e e7b6 1a3f 504c eb3d 4318 02bf
00000080: ade5 413f 2342 2ebe 5c5c 293f 1200 db3e
00000090: 1439 b73e e47d 9c3d 4d03 3a3c 685e 25bd
000000a0: a6fa 2fbd e24a 6f3f 3867 f03f cdeb b73e
000000b0: aeff 96bf 0508 14c0 559d 48bf 9c56 1cbf
000000c0: c635 e83e 26d6 483f 53d6 233f b735 863f
000000d0: a76a cebe 52a5 19bf 11e1 99be 6515 d6be
000000e0: e592 c93e 3470 3b3f 8830 b33f f9aa 5d3f
000000f0: 3c91 14bf 16b9 9a3f b7f4 11bf a93e 94bf
00000100: 65bf cebd 2479 763e 4392 1340 b2ce 59be
00000110: b464 f1bc 32a0 abbf 4c91 fbbe 5c5b aabf
00000120: 00e8 d0be 81ae 093d 01c6 843f 03a3 44be
00000130: e378 873e 0297 e83e fa61 debe db1d d6bd
00000140: 3b0e 6c3f f727 e03f 4d9b d8be a82f f13d
00000150: 605a c4bd 5044 803f e4f5 123e e5c8 cbbe
00000160: 2b12 46be 4893 503e 6e32 6f3e 9713 0cbe
00000170: 8e8c ae3e 34d6 023d 9019 a33e 3b42 24bf
00000180: e2dc 5d3f dddb 1ebe d49d f53e 2de1 ebbe
00000190: 6df3 9d3e 962c 193c f673 68be 3796 bcbd
000001a0: 431a 7f3f e65f 1f3d 8e9c c93f 7c79 2c3e
000001b0: 11d8 08bf d784 b0bd b2f3 3bbe c8eb 2c3f
000001c0: 79fb 0b3f 5966 27be a2d8 7ebf b1bf 243e
000001d0: 19d4 42be d876 e4be 1b7b 053e 611f a0bc
000001e0: 1b8f 1040 0baf a5bd 784e 1340 ca2e 6f3e
000001f0: 350d 4a3e 79f2 d0bf d17d 7bbf 61b2 933f
00000200: 0029 bd3e e5d2 193f 61eb 463e 6929 7d3e
00000210: 5a83 86be f54a 413f 5fc8 98bb 26a5 293f
00000220: 0123 b03e e1c8 08bc 67b3 c1be c6ed 1ebe
00000230: 4cb0 083f 04df be3c 8692 d63d be0b 1f3f
00000240: bacf 163f fa35 e33e 94ca 2b3f f593 a53e
00000250: 8f2c 4a3f d50d 873e 6df1 3cbe 37fd da3e
00000260: 702e 83bd 2c45 d23e c52c 803e 2ec7 75be
00000270: 1800 f0bd 74bc b2be f4ae e33e 4329 2a3e
00000280: 725d 73bf 8363 da3e 5a2a ddbe ac14 a1bd
00000290: 47ee 933d 6717 98be be88 8a3d 98ef 753d
000002a0: 1f9b 26bf 1465 433c c451 cdbe 2982 4cbe
000002b0: d96f ec3d 9f94 82bf 3c3e f43e 7c4c 5f3e
000002c0: cb36 bdbe e599 0e3e e830 b73d 311c 0bbe
000002d0: a106 24be e888 77bd 07d1 95be a6ef 81bd
000002e0: c78a bfbf bf73 82bd e486 773f 1f55 613d
000002f0: 5c36 88be 062e 46bf efb2 9c3f ecfa e4bf
00000300: 8752 063f b7ca 9abb 96b3 ef3d 17a6 3ebf
00000310: 6d84 9cbe 9725 85bf e133 b4be 8a56 a5be
00000320: 93f2 0ac0 4aec d6bf 11c7 71bd af19 1b3e
00000330: b3ff 133f cd67 6d3e d659 5cbf 4068 6dbe
00000340: 2047 773f d08e 1dbc b5a9 b43f 5419 4a3e
00000350: ea95 7abf 9c5b 7cbf 0ed2 89bf 6eed 0cbe
00000360: 9853 bfbe 064f dc3e c129 2cbf a837 8b3e
00000370: 247d 3f3c e88b b0be 75dd eebe 0a00 1bbe
00000380: 67a6 153f fa88 ca3e aab0 6b3e 921b b4be
00000390: 60ff e03e 5649 0c3f 7c6e 843e 73d3 f3be
000003a0: 973d efbd 81e7 743f 3892 673c 3d4c 99bf
000003b0: 349b d2bf 8459 dcbf 22f3 56bf aaea ed3e
000003c0: 8209 28bf a792 e03e 6e12 2f3f 61b6 703e
000003d0: 9b26 abbe 5a7f 21bf 296f 003e 8ac8 9bbe
000003e0: 85c9 45bf 9188 453e 1dff b13e 57d0 093f
000003f0: 96cd d73c a282 cbbf e4d4 61bf 5154 abbf
0.75882214 0.58307135 1.7658474 -0.36125028 -0.582996 -2.227948 -1.3403838 0.8536286
0.12818903 -0.29240453 0.778473 -0.461477 -0.111618176 0.25845248 -0.33316195 -0.29884058
1.2783929 -1.473444 0.733513 -0.58024466 -1.2707597 0.14713673 -1.8747267 -0.9619838
-0.4913714 -0.47610614 -0.30002934 0.11030059 0.2788618 0.60435337 0.11489165 -0.5081827
0.7574108 -0.17017417 0.66156554 0.4277349 0.35785735 0.07641199 0.011353326 -0.040373236
-0.042963646 0.9347364 1.87815 0.3592209 -1.1796777 -2.3129895 -0.7836507 -0.61069655
0.45353526 0.78451765 0.6399891 1.0485142 -0.40315744 -0.60017884 -0.30054525 -0.41813198
0.39369884 0.73218083 1.3999186 0.8658901 -0.5803411 1.2087734 -0.5701403 -1.1581622
-0.10095099 0.24069649 2.305802 -0.21270254 -0.029466964 -1.3408263 -0.4913429 -1.3309131
-0.40802002 0.033613686 1.0372926 -0.19202809 0.26459417 0.4542771 -0.43434125 -0.10454913
0.92209214 1.7512196 -0.42305985 0.11776668 -0.0958755 1.0020847 0.14351612 -0.39801708
-0.19342868 0.20368683 0.23359081 -0.13679348 0.3409161 0.03194256 0.3185544 -0.6416356
0.86665165 -0.15513559 0.47971976 -0.46070233 0.30849782 0.009349009 -0.22700486 -0.09208339
0.9964945 0.038909815 1.5750902 0.16843218 -0.5345469 -0.08619087 -0.18354681 0.67547274
0.5468059 -0.16347636 -0.99549305 0.1608875 -0.19026221 -0.4462192 0.13035242 -0.019546213
2.2587345 -0.080900274 2.3016644 0.23357692 0.197316 -1.6323997 -0.98238856 1.1538812
0.36945343 0.60087425 0.19425727 0.24722828 -0.26272088 0.75505 -0.004662558 0.6626762
0.34401706 -0.0083486745 -0.37832186 -0.15520391 0.5339401 0.023299702 0.10477166 0.6212729
0.58910716 0.44377118 0.67105985 0.32339445 0.7897424 0.2637774 -0.18451472 0.42771313
-0.064053416 0.410684 0.25034156 -0.24001762 -0.11718768 -0.34909403 0.44469416 0.16617303
-0.9506446 0.42654046 -0.43196374 -0.07865271 0.07223182 -0.29705355 0.06764363 0.060042948
-0.65080446 0.011925954 -0.40101445 -0.19971527 0.11544771 -1.0201606 0.4770373 0.2180652
-0.36955866 0.13925894 0.08944875 -0.13584973 -0.16018154 -0.0604333 -0.29261038 -0.063445374
-1.4964226 -0.06369733 0.966902 0.05501282 -0.26603973 -0.77413976 1.2242106 -1.7889075
0.52469677 -0.0047238725 0.11704175 -0.74472183 -0.30569783 -1.0402097 -0.3519583 -0.32292587
-2.1710556 -1.679086 -0.059027735 0.15146516 0.5781204 0.23184128 -0.8607458 -0.231843
0.96592903 -0.009616569 1.411429 0.19736224 -0.97885 -0.98577285 -1.0767229 -0.13762447
-0.37368464 0.4302904 -0.6725121 0.271909 0.011687551 -0.3448174 -0.46653333 -0.15136734
0.58457035 0.3955763 0.2301661 -0.35177284 0.43944836 0.547994 0.25865543 -0.4762226
-0.11681669 0.95665747 0.014133982 -1.1976391 -1.6453614 -1.7214818 -0.8396474 0.46468097
-0.6563951 0.43861887 0.68387496 0.23507072 -0.3342789 -0.6308495 0.12542404 -0.30426437
-0.7726062 0.19290377 0.34764948 0.53833526 0.026343148 -1.5899241 -0.8821547 -1.3385106

rnn.bias_ih_l0 f4 [32]
00000000: 3ccd 52be 7a3b 6b3f 7a46 febe f380 423e
00000010: 0a24 7fbe 2d4b 6e3e 8826 223f 40c4 ca3e
00000020: 7a93 c5be e8c1 35bf aa55 a9be a3f1 9f3d
00000030: 8d37 07be 4522 303e 6c59 3bbe 7b60 9abe
00000040: 34f5 5fbd 9932 283e 4b3f 06be 5dd8 3d3e
00000050: a830 753d 8346 b6bb aa6f a13e 2549 b23d
00000060: f967 8f3d 7927 2bbd 83be 81bd 4ca7 31be
00000070: 516b aa3d e33d c4bb 78d2 2f3e 14d7 00be
-0.20586103 0.9188763 -0.49663144 0.18994503 -0.24916092 0.23270865 0.63340044 0.39602852
-0.38589078 -0.70999 -0.3307317 0.078097604 -0.13204785 0.17200573 -0.1829583 -0.30151734
-0.054677203 0.16425551 -0.13110082 0.18539567 0.059860855 -0.005562605 0.31530505 0.087053575
0.07002253 -0.04178569 -0.06335165 -0.17348975 0.0832125 -0.005988823 0.17170131 -0.12582046

rnn.bias_hh_l0 f4 [32]
00000000: 2b47 603e 9876 e23e a010 bebe 78db 5abd
00000010: 01b8 bb3c 8acb 513e bc41 b53e 683f 553e
00000020: 6484 bebe b19b 2bbe 215c e6be d65f dbbc
00000030: 8f44 bbbb 96f2 a8be 4f1b 81bd e1e8 0bbf
00000040: 71aa 1cbd e4ca 303e 1168 b83d 6143 c23d
00000050: e2d2 74be 1a32 e5bd 72a8 7f3e bf3e ee3d
00000060: c099 2cbe 3e66 773e d094 10bd 5550 22be
00000070: 21c8 bb3d d826 b6bc 7d33 7b3e d58b cf3e
0.21902148 0.44231105 -0.3712206 -0.053431958 0.022914888 0.204878 0.35401714 0.20824969
-0.3721038 -0.1675861 -0.44992164 -0.026779097 -0.00571496 -0.32997578 -0.06304037 -0.5465222
-0.038248483 0.17264897 0.09004224 0.09485508 -0.2390857 -0.11191197 0.249666 0.116330616
-0.16855526 0.24160096 -0.03529817 -0.15850957 0.09169031 -0.022235319 0.2453136 0.4053637

reg.0.weight f4 [8, 8]
00000000: 40ea 93bb f225 79bf 5acd 233b 90c4 5a3e
00000010: 6a88 73be daab 2a3f 2bec 9b3e fbf1 c53e
00000020: ad88 7abe c70d 04bf 4327 b6be b903 4a3e
00000030: 856e 553d f5df 033f 497b f5be 71a8 383e
00000040: c76a 28bf 1d7c 193f 77e4 873f 9aab 03bf
00000050: 28a3 17be 4016 3d3f 2c48 25be 88c4 1f3f
00000060: 5e87 a03e 9c1e 18bf 5ef4 c1be dfdf 623d
00000070: d0ba 18be d24d 123f 5ef9 bebe ff79 003f
00000080: 5734 c1be 27b1 db3e a937 063e e6f5 9bbe
00000090: 1010 10be 995d 7c3e 9966 d83e 97c0 71bc
000000a0: f04b 853e c5c4 2f3e 99f2 54be 1813 00bd
000000b0: 5ef8 b7be ff1d aebd e654 4fbe d557 1bbb
000000c0: 82a3 30be 7546 79be a346 cf3e a995 513e
000000d0: c10d d0be 95d9 f0bb 030c f2be dd3a 8fbe
000000e0: b4d7 abbe 2e2a 31bf ff75 c03e 9933 a83e
000000f0: ad9c 44be 4885 123f 6d06 c93d f272 513f
-0.0045140088 -0.97323525 0.0024994225 0.21364045 -0.23782507 0.66668475 0.3045362 0.3866118
-0.244662 -0.5158352 -0.3557683 0.19727983 0.052107353 0.51513606 -0.47945622 0.18033005
-0.6578793 0.59955007 1.0616597 -0.5143372 -0.14808333 0.73862076 -0.16140813 0.6240926
0.31353277 -0.59421706 -0.3788175 0.05538928 -0.14915013 0.57149994 -0.37299627 0.5018615
-0.37735245 0.42908594 0.1310717 -0.30461043 -0.14068627 0.2464508 0.42265776 -0.01475539
0.26034498 0.17164905 -0.20795669 -0.03126821 -0.35931677 -0.08501815 -0.2024723 -0.0023703475
-0.17249873 -0.24343283 0.4048358 0.20467247 -0.40635493 -0.0073501565 -0.4727479 -0.27974597
-0.33563006 -0.69204986 0.37590024 0.32851866 -0.19200392 0.5723462 0.09815679 0.8181602

reg.0.bias f4 [8]
00000000: 25f1 aabd 8b85 7b3e c914 1fbe f164 aa3d
00000010: 72f0 ff3d e996 34bd 73d2 5f3e aee5 e13d
-0.08346776 0.24562661 -0.15535273 0.08320034 0.12497033 -0.04408923 0.21857624 0.11030136

reg.2.weight f4 [7, 8]
00000000: 04aa 553d 93f9 0cbc 049c a0be 4570 6cbe
00000010: 41c2 ba3d 07a8 2c3e 4dac 0f3e 4622 c9bd
00000020: 1377 3abf 986f c73d e4da 30bf e63c c6bd
00000030: ba58 d9be 0440 70bd e39c b0bc 9b10 a7be
00000040: 6682 1fbf f470 a13d 77b1 1cbf 2157 6ebe
00000050: 3f79 f4bd a2ca 013f 377c d43b 013e 51bf
00000060: e701 f7be d11b 11be 6e25 3d3f e1a8 a8be
00000070: b4b2 38bd 7fb1 903d 79fc 283e b5de c3be
00000080: 504a e8bd 0a31 b43e 0b60 a03f e6c1 7e3d
00000090: c9b9 2abd a399 f63b 573c f03d dfb6 d93e
000000a0: fbfe 453d 73df f03e c733 dd3e 0517 633f
000000b0: c823 1a3e 8a60 a33e 10b0 b43e 520b d93e
000000c0: cefa 8b3e 4517 f63e 4504 62be 85be 613f
000000d0: af77 f1be c675 e63d 605e bb3e 1e28 903c
0.052164093 -0.008604425 -0.3136903 -0.23089702 0.09119082 0.16860972 0.14030571 -0.0982099
-0.7283794 0.09738082 -0.69084 -0.09679584 -0.42450505 -0.0586548 -0.021559184 -0.32629856
-0.6230835 0.07882872 -0.6120829 -0.23275425 -0.11937188 0.5069982 0.006484534 -0.81735235
-0.4824364 -0.14170767 0.7388524 -0.32941344 -0.0450923 0.07065105 0.1650256 -0.3825585
-0.11342299 0.35193664 1.252931 0.062196635 -0.041681085 0.007525639 0.11730259 0.42522332
0.04833887 0.47045478 0.43203565 0.88707 0.15052712 0.3190959 0.35290575 0.4239145
0.27339786 0.48064628 -0.22071941 0.88181335 -0.47161624 0.11252932 0.3659544 0.017597254

reg.2.bias f4 [7]
00000000: f033 47bd 1249 6e3d 1c47 013e 248e 383e
00000010: ea49 913d 1a74 81bd 6ed8 ab3d
-0.048633516 0.058175154 0.12624782 0.18022972 0.07094176 -0.06320973 0.0839089
