net.pth (torch, 3711 bytes, 7 tensors)

rnn.weight_ih_l0 f4 [32, 1]
-0.13986255 0.40527186 -0.07857264 -0.5442892 -0.51092106 0.1795639 -0.54174745 0.081947304
-0.22171347 0.48583412 -0.030184848 -0.6058269 -0.5250465 0.8472944 -0.02259899 -0.3337442
-0.8496682 0.36744362 -0.2437148 -0.48012066 -0.10611704 0.4372269 -0.07050568 -0.9309558
-0.59561634 0.95803756 0.42248186 -0.8550978 -0.995104 0.6017478 -0.64014775 -0.17123003
00000000: 2138 0fbe cb7f cf3e b1ea a0bd 8956 0bbf
00000010: b9cb 02bf 99df 373e f6af 0abf fdd3 a73d
00000020: db08 63be 40bf f83e 3746 f7bc 7917 1bbf
00000030: 7369 06bf 49e8 583f 8421 b9bc 85e0 aabe
00000040: db83 59bf 9221 bc3e 5f90 79be 60d2 f5be
00000050: e453 d9bd 34dc df3e 4865 90bd 1f53 6ebf
00000060: 507a 18bf f341 753f 8b4f d83e b0e7 5abf
00000070: 23bf 7ebf 250c 1a3f b9e0 23bf ed56 2fbe

rnn.weight_hh_l0 f4 [32, 8]
-0.19571906 -0.15524405 0.061744537 -0.1750086 0.42709905 -0.019890344 0.11799094 0.08643347
0.35371754 0.21311198 -0.31662372 -0.08030092 -0.123231515 0.114366084 -0.49441853 0.18634836
-0.08717061 -0.11687864 -0.45630503 -0.14873812 0.041266073 0.18723339 0.06344315 -0.08375387
-0.47128856 -0.47195533 0.30507112 -0.340837 -0.3436795 0.30743957 -0.17883432 0.26902744
-0.18053176 -0.48678935 0.1420596 -0.038912624 0.30088073 -0.35003713 0.13136311 -0.18331218
0.32965878 0.032273326 -0.37282726 0.5161432 0.30959874 0.13061987 -0.7136831 -0.18834017
0.38330343 -0.09516887 0.114031136 0.053829975 0.19230908 -0.15141751 0.30303103 0.34934056
0.02838114 -0.15048131 0.15553842 0.23824932 0.62328887 0.14157118 -0.45924956 0.7844394
-0.26311663 -0.715109 0.26291925 0.11766861 0.058876686 -0.09341796 0.21785855 -0.0732705
0.04734911 0.22674467 -0.20708223 -0.1287976 -0.33257347 0.45518115 -0.15122476 -0.3634061
-0.1339077 -0.04052036 0.043964673 -0.2908481 -0.24028955 0.3901725 0.15868017 -0.13364884
0.12273153 -0.14241572 0.48412576 -0.29121685 0.20674863 0.1615628 0.12546612 0.33113584
-0.12547109 -0.12220117 0.34712914 -0.019749718 0.089211896 -0.1528823 -0.0035900704 0.11688733
0.30639693 -0.020758998 0.09054316 0.15856053 0.2016196 0.36037546 0.20526108 -0.0779801
0.2831729 -0.13240865 0.29323763 -0.039521515 0.19962658 -0.39166787 -0.16733694 -0.22155544
-0.28740785 -0.2711248 0.47532666 -0.37635976 -0.36423564 -0.22576247 -0.07414976 -0.3674465
-0.5258929 -0.5380801 0.40449122 -0.03193676 -0.6538861 -0.14191946 0.19065385 0.13087168
0.17858723 -0.01646563 0.11763105 0.2164514 0.1301781 0.18222542 0.031018518 0.0577431
-0.36980295 0.17929955 0.049838502 -0.019709522 -0.3161187 0.02072951 0.06328377 0.026692642
-0.11256632 -0.3674068 -0.19045079 0.033807885 0.047917135 0.11216218 -0.0004653654 0.26452202
0.028708918 0.16700189 0.10495774 0.1154618 -0.040135726 0.0701551 -0.2536507 0.36837792
0.33563465 0.00071124366 -0.0775654 0.51675653 0.055488165 -0.30482364 -0.22497009 0.2430708
-0.50068706 0.075688645 -0.24493761 -0.025062947 -0.07752071 -0.19506267 0.34838268 -0.36282095
-0.46525586 -0.43410727 0.43571317 -0.065340295 0.13027796 0.1877439 -0.05804577 -0.117854334
-0.12996404 -0.83105004 0.02369315 0.32879075 0.3483066 0.048522066 0.11675536 0.07283272
0.057460528 0.4157621 -0.17667794 -0.078300364 0.21853232 0.04931516 -0.24353129 0.09299495
0.2355484 0.030126324 -0.27934304 -0.22891942 0.06247066 0.33980015 -0.21537396 -0.26822725
0.17441882 -0.21667878 0.33015168 -0.37816876 -0.32692337 0.43093774 -0.1334703 0.32783166
0.17750189 0.00966569 0.123592265 -0.21602093 -0.416005 0.24128865 0.23540889 0.26714247
0.7257405 -0.0023031447 0.16342683 0.46641707 0.5335514 0.0050550653 -0.21035254 -0.2947585
0.1936425 -0.6817489 -0.07757638 -0.10948376 0.05081672 -0.42730942 -0.029379424 -5.1228522e-05
0.21182215 0.15324746 0.22067326 0.7044877 0.57084346 -0.017876012 -0.03093025 0.27917576
00000000: 946a 48be 4cf8 1ebe d7e7 7c3d 7435 33be
00000010: baac da3e 13f1 a2bc 3ca5 f13d 0804 b13d
00000020: 771a b53e 073a 5a3e 811c a2be cf74 a4bd
00000030: ce60 fcbd c438 ea3d 6d24 fdbe 1bd2 3e3e
00000040: 8186 b2bd 125e efbd d0a0 e9be ce4e 18be
00000050: 9d06 293d 1cba 3f3e 7bee 813d 2687 abbd
00000060: bc4c f1be 21a4 f1be 4832 9c3e 3082 aebe
00000070: c2f6 afbe b868 9d3e 5820 37be f7bd 893e
00000080: 51dd 38be 743c f9be 1278 113e d862 1fbd
00000090: 0a0d 9a3e 1138 b3be 0d84 063e 30b6 3bbe
000000a0: 09c9 a83e 0931 043d 37e3 bebe f621 043f
000000b0: ba83 9e3e 37c1 053e f0b3 36bf 3fdc 40be
000000c0: 5940 c43e e6e7 c2bd 2889 e93d d27c 5c3d
000000d0: acec 443e 310d 1bbe e226 9b3e c4dc b23e
000000e0: 917f e83c c617 1abe 7745 1f3e a1f7 733e
000000f0: dc8f 1f3f 09f8 103e c222 ebbe 05d1 483f
00000100: 39b7 86be 6211 37bf 5a9d 863e 3dfc f03d
00000110: ae28 713d ea51 bfbd 5016 5f3e d80e 96bd
00000120: 24f1 413d c12f 683e 5d0d 54be 85e3 03be
00000130: 1247 aabe 810d e93e aada 1abe 5d10 babe
00000140: 1a1f 09be adf8 25bd 4d14 343d 0bea 94be
00000150: 770e 76be b1c4 c73e 0e7d 223e 3edb 08be
00000160: ab5a fb3d 6dd5 11be 55df f73e 601a 95be
00000170: eab5 533e b870 253e 317a 003e a38a a93e
00000180: 7e7b 00be 9b44 fabd e9ba b13e 29ca a1bc
00000190: bab4 b63d 2d8d 1cbe 6347 6bbb a062 ef3d
000001a0: 0fe0 9c3e c60e aabc b16e b93d b15d 223e
000001b0: 5e75 4e3e 2283 b83e f62f 523e 08b4 9fbd
000001c0: 0afc 903e 2296 07be 3e23 963e 50e1 21bd
000001d0: e96a 4c3e b188 c8be 605a 2bbe 6edf 62be
000001e0: 1f27 93be dfd0 8abe 045e f33e 3ab2 c0be
000001f0: 187d babe 472e 67be d4db 97bd f321 bcbe
00000200: eba0 06bf 9ebf 09bf 7919 cf3e 1fd0 02bd
00000210: 1465 27bf 5653 11be c33a 433e 3a03 063e
00000220: 92df 363e eee2 86bc 8ce8 f03d 70a5 5d3e
00000230: 684d 053e 4d99 3a3e 8c1a fe3c 0784 6c3d
00000240: d056 bdbe 4d9a 373e 7523 4c3d dd75 a1bc
00000250: 4fda a1be efd0 a93c ec9a 813d 87aa da3c
00000260: 2c89 e6bd be1c bcbe 8805 43be 237a 0a3d
00000270: c244 443d 49b5 e53d 49fc f3b9 6e6f 873e
00000280: f72e eb3c 8b02 2b3e 15f4 d63d 3c77 ec3d
00000290: 5c65 24bd 7aad 8f3d 81de 81be 089c bc3e
000002a0: 4ed8 ab3e c172 3a3a 9cda 9ebd 284a 043f
000002b0: 8f47 633d d811 9cbe 8f5e 66be 8de7 783e
000002c0: 072d 00bf a602 9b3d edd0 7abe cf50 cdbc
000002d0: 2ec3 9ebd 82be 47be 375f b23e abc3 b9be
000002e0: 0436 eebe 4f43 debe cc15 df3e 22d1 85bd
000002f0: 9667 053e f03f 403e 67c1 6dbd 9d5d f1bd
00000300: 4b15 05be b2bf 54bf 2318 c23c 4357 a83e
00000310: 3e55 b23e 13bf 463d 6f1d ef3d 5229 953d
00000320: bb5b 6b3d c5de d43e 10eb 34be f15b a0bd
00000330: f0c6 5f3e b1fe 493d 4460 79be 2374 be3d
00000340: 9a33 713e 7bcb f63c 0d06 8fbe da69 6abe
00000350: 3ce1 7f3d 49fa ad3e fe8a 5cbe 1555 89be
00000360: d99a 323e 0be1 5dbe a409 a93e 569f c1be
00000370: 8062 a7be dfa3 dc3e 70ac 08be 8dd9 a73e
00000380: 0ec3 353e d85c 1e3c f11d fd3d 9734 5dbe
00000390: 9bfe d4be 5f14 773e 070f 713e e6c6 883e
000003a0: 21ca 393f 5bf0 16bb 5d59 273e 38ce ee3e
000003b0: d396 083f f6a4 a53b a866 57be 96ea 96be
000003c0: 384a 463e 1987 2ebf 5de0 9ebd 0639 e0bd
000003d0: 3125 503d 4dc8 dabe 1ead f0bc 35de 56b8
000003e0: e8e7 583e e7ec 1c3e 2cf8 613e 4e59 343f
000003f0: cc22 123f b770 92bc 7061 fdbc 20f0 8e3e

rnn.bias_ih_l0 f4 [32]
0.22618033 0.59113234 -0.1494881 0.3070149 0.11040712 0.1678755 0.47681278 0.43859166
-0.015871545 0.24962328 -0.32702413 -0.26283285 0.112517945 -0.28128406 0.30657795 0.032023657
0.16374953 0.26959133 0.05446043 0.43994132 0.1621106 0.17261162 -0.15928625 0.28846857
0.41712177 -0.21688089 0.031221408 0.30274373 0.1389057 0.19723102 -0.016161045 0.22997409
00000000: d19b 673e 7354 173f 6913 19be 0f31 9d3e
00000010: 211d e23d 8ee7 2b3e ce20 f43e 168f e03e
00000020: 0b05 82bc 3f9d 7f3e b56f a7be 0792 86be
00000030: cf6f e63d 7704 90be c9f7 9c3e 3d2b 033d
00000040: f5ad 273e e007 8a3e e611 5f3d fd3f e13e
00000050: 5200 263e 1ac1 303e ef1b 23be 27b2 933e
00000060: fc90 d53e 0616 5ebe 0ac4 ff3c 3a01 9b3e
00000070: 4c3d 0e3e eef6 493e 2b64 84bc 547e 6b3e

rnn.bias_hh_l0 f4 [32]
0.3314344 0.56809753 -0.30829304 0.20429598 0.08314747 0.57710963 0.4561755 0.66757464
-0.37879375 0.063977264 -0.27116778 0.1755863 -0.14745456 -0.13833022 0.3990328 0.3043856
0.13579856 0.5004467 -0.01599423 -0.1634957 0.46841648 0.0067403084 -0.31541464 -0.24617593
-0.009058621 0.05439077 -0.15120149 0.16177498 0.22542582 0.4835955 -0.36836568 0.2590976
00000000: c5b1 a93e d76e 113f 96d8 9dbe f732 513e
00000010: 3949 aa3d 75bd 133f d68f e93e 2ce6 2a3f
00000020: 41f1 c1be 8306 833d 81d6 8abe e5cc 333e
00000030: 54fe 16be 70a6 0dbe 074e cc3e 6ed8 9b3e
00000040: c70e 0b3e 461d 003f 5506 83bc 6b6b 27be
00000050: 49d4 ef3e cedd dc3b 077e a1be 8b15 7cbe
00000060: 9c6a 14bc dbc8 5e3d 90d4 1abe 57a8 253e
00000070: 07d6 663e d499 f73e 6d9a bcbe 71a8 843e

reg.0.weight f4 [8, 8]
0.29589716 -0.6195893 0.59037226 0.2572413 -0.076790944 -0.27265784 -0.29214975 0.6370267
0.19931367 -0.38494244 0.22287576 0.44273975 0.35478333 -0.42917916 -0.08035963 0.57666284
-0.026033927 -0.4835046 0.30848488 -0.10329627 -0.094560355 -0.07822493 0.2470668 0.15486419
-0.24058197 -0.19153756 0.041447733 -0.072170936 0.092020236 0.022660553 0.35244408 -0.263027
-0.11782856 -0.39670312 -0.10648506 -0.14995316 0.41305128 -0.30075055 -0.100071795 0.26732764
-0.23645607 0.35711548 -0.025402235 -0.22248067 -0.26411122 0.6016013 0.038325083 -0.46545973
-0.18352194 -0.37433767 -0.07470527 0.47054774 0.21132344 0.053473104 -0.25807378 0.108823545
-0.47426063 0.2743264 0.015234208 -0.012603586 -0.18069917 0.6368261 0.25250545 -0.70957065
00000000: d57f 973e 689d 1ebf a322 173f 22b5 833e
00000010: 9244 9dbd cf99 8bbe a794 95be 2f14 233f
00000020: e218 4c3e 2d17 c5be 8b39 643e c9ae e23e
00000030: 29a6 b53e 5fbd dbbe 9793 a4bd 2da0 133f
00000040: 1a45 d5bc ea8d f7be bbf1 9d3e ff8c d3bd
00000050: dca8 c1bd 6434 a0bd 14ff 7c3e b894 1e3e
00000060: 1f5b 76be 6c22 44be 19c5 293d 5bce 93bd
00000070: 1b75 bc3d a0a2 b93c 8d73 b43e 7aab 86be
00000080: 1a50 f1bd ac1c cbbe d714 dabd 528d 19be
00000090: 757b d33e fafb 99be 71f2 ccbd 2bdf 883e
000000a0: 8a21 72be d7d7 b63e 5918 d0bc f9d1 63be
000000b0: 9639 87be 8b02 1a3f c3fa 1c3d bd50 eebe
000000c0: 2ded 3bbe 30a9 bfbe 14ff 98bd a2eb f03e
000000d0: 2c65 583e 9d06 5b3d 3f22 84be e1de de3d
000000e0: 4ad2 f2be 8374 8c3e e698 793c 457f 4ebc
000000f0: 3409 39be 0907 233f 6548 813e 6ca6 35bf

reg.0.bias f4 [8]
0.30591485 0.3680764 0.1600953 0.07684261 0.2831633 -0.04511049 0.098221995 -0.42001408
00000000: dfa0 9c3e 8374 bc3e 06f0 233e a95f 9d3d
00000010: c8fa 903e c7c5 38bd 9d28 c93d 160c d7be

reg.2.weight f4 [1, 8]
-0.22015654 -0.24334462 -0.06608389 0.020189602 -0.2506993 0.22872515 -0.12907375 0.46325403
00000000: b770 61be 552f 79be fe56 87bd aa64 a53c
00000010: a95b 80be ed36 6a3e e92b 04be a22f ed3e
