time-series-prediction-lstm-pytorch/net.pth (torch, 3711 bytes, 7 tensors)

rnn.weight_ih_l0 f4 [32, 1]
000000 58 e7 1b 3f 34 11 c6 be 21 80 e3 3f f0 7d e7 3e
       0.6089988 -0.38685 1.7773477 0.4521327
000010 6d 9a 16 be 68 0f 04 3f 42 f8 0d be 90 96 bf 3e
       -0.14707346 0.5158601 -0.13864234 0.37419558
000020 36 9d 14 3f 78 11 a2 be 5b 8f be 3e bb 85 87 3e
       0.58052385 -0.31653953 0.37218747 0.26469216
000030 28 d5 72 bf df 72 43 bb ab cc eb be 4a 4b 13 3e
       -0.948565 -0.0029823107 -0.46054587 0.14384189
000040 c6 c1 b3 3e e9 89 2c 3e 49 c0 0c 3f 97 6b 87 3e
       0.35108775 0.16849484 0.54980904 0.26449272
000050 bf 15 1a 40 d8 bf a7 3e 3d a3 90 3e 54 b7 c9 bc
       2.4075773 0.32763553 0.2824954 -0.02462355
000060 b6 90 ee 3e b4 b1 11 3e c2 17 b8 3f 22 41 21 3e
       0.4659478 0.14227945 1.438225 0.15747502
000070 2f f3 ee be 21 de 5f 3e 69 c1 59 be ae 15 94 3e
       -0.4666991 0.21862079 -0.21265186 0.2892279

rnn.weight_hh_l0 f4 [32, 8]
000000 85 20 6e 3c 98 59 17 be ad 80 93 bd 49 51 2a be
       0.01453412 -0.14780271 -0.07202277 -0.1663257
000010 f2 46 ba be c8 5a 21 bd 67 26 ff be 1f 6a 47 be
       -0.36382252 -0.039393216 -0.49833986 -0.19474076
000020 c5 c9 8e be dc 2e 02 bf 3d 02 f0 bd d6 87 2f be
       -0.27888313 -0.5085275 -0.11719177 -0.17141661
000030 32 c4 4f 3e 69 77 d5 3d 38 ca 8c bd 76 78 f4 3d
       0.20289686 0.10423166 -0.06874508 0.119370386
000040 f8 ab 88 3d a3 fe 26 be 6b 3b 82 3e 15 2a b9 bd
       0.066734254 -0.16308074 0.25435957 -0.0904123
000050 53 db 93 be 81 2d 85 3e 98 21 59 be 15 3f b3 3e
       -0.2887827 0.2601128 -0.21204221 0.35009065
000060 a1 85 9c bd a6 b7 79 3e e1 8b 90 3e 74 bf 5b 3e
       -0.07642675 0.24386463 0.2823172 0.21459752
000070 cb bf de 3c 1a cc 20 bd d9 61 65 bd 78 16 1d be
       0.027191063 -0.039257146 -0.056001518 -0.15340602
000080 56 05 8a 3f 51 39 8f 3f 6a bd f9 be 12 be 0b 3b
       1.0782878 1.1189367 -0.48777324 0.0021323008
000090 ea f8 5c bf fb 71 67 bf 4c a9 a5 3e ad c3 ca 3e
       -0.8631731 -0.90408295 0.32355726 0.39602414
0000a0 3b 79 bc 3e c3 e4 76 3e 9c df 95 3d b6 62 5b 3c
       0.36811242 0.24110703 0.07318041 0.013390234
0000b0 34 69 84 be c8 39 81 3d 37 1b 43 3e 2c ae 92 bd
       -0.25861514 0.06309849 0.1905335 -0.07162127
0000c0 e9 24 ab be 44 98 9c bd 72 e3 e4 be 41 bc e5 be
       -0.33426598 -0.0764623 -0.44704777 -0.4487019
0000d0 28 60 15 3e 7e 1e b1 be b4 5e f7 be 3b 7f 16 be
       0.14587462 -0.34593576 -0.4831444 -0.14696972
0000e0 c2 28 13 3e fd d4 8c 3e 0d f6 e6 ba e6 a4 3c be
       0.14371017 0.27506247 -0.0017620936 -0.18422279
0000f0 08 00 84 3e b3 0f 6a 3d 80 56 89 3e fb f0 d0 be
       0.25781274 0.05714388 0.26823807 -0.40808854
000100 2d 3e a2 3e ca 27 94 3d 43 48 9f 3e b2 6b 0c be
       0.3168806 0.07234152 0.3110982 -0.13712958
000110 38 0f 0a be 32 4f 5d be 7d 96 f5 be 1a 94 3d be
       -0.13482368 -0.21612242 -0.47966376 -0.18513528
000120 ae 83 2d be 40 c3 ba 3d 9c e1 ac bc ed 48 9f bd
       -0.16944763 0.09119272 -0.021103673 -0.07777581
000130 ae 1c 85 3d d9 15 3e 3e d0 03 4c 3e e0 b1 a5 be
       0.06499611 0.18563022 0.1992333 -0.3236227
000140 4d 29 b0 3b d5 3f 06 be 5a 2c 0f 3d 1f d3 b6 3e
       0.005376017 -0.13110287 0.034954406 0.35707948
000150 dd a3 d2 3c d9 f3 d6 3a 0c d8 a2 3d 92 9d c7 3e
       0.025712902 0.0016399577 0.07951364 0.38987404
000160 79 36 5f 3e ee e6 e2 3d 87 9a 78 bd dd 5f fb 3c
       0.21798123 0.110792026 -0.060694244 0.03068536
000170 18 05 99 3b b1 09 af be 3f 7d 70 be 86 53 d6 bd
       0.0046697967 -0.3418708 -0.23485278 -0.104651496
000180 91 88 13 bd 8e c5 49 be 4f ee 4e bc 86 20 f9 3d
       -0.03601891 -0.19704267 -0.012630059 0.121644065
000190 0b 03 26 3f d6 9e ab 3e 15 2b 59 3e 15 6a b9 be
       0.64848393 0.3351962 0.2120784 -0.36213747
0001a0 38 e0 a3 3e fb 01 d8 bd a1 bd c4 3d b3 fe 89 be
       0.32007003 -0.10547253 0.09606481 -0.26952133
0001b0 17 b6 25 3f 58 13 a8 3e d7 6d bb 3e b5 87 90 be
       0.6473097 0.32827258 0.3660724 -0.28228536
0001c0 1c ae 06 bf 6e dd dd 3d 06 ff f8 bd e4 cc 40 ba
       -0.5260942 0.1083325 -0.12158017 -0.000735475
0001d0 f0 6a 5f be 2a 09 72 be 7e 41 a5 3e f0 99 c2 3c
       -0.21818137 -0.23636308 0.3227653 0.023755044
0001e0 b5 68 81 3e eb 9b 8e bd 82 52 e0 3d 36 8c 71 be
       0.25275198 -0.06963333 0.10953237 -0.23588642
0001f0 f3 15 a9 3e 54 86 89 be 3f 3c 6d 3e 77 9a 47 be
       0.33024558 -0.26860297 0.23167513 -0.19492517
000200 05 60 71 3e 01 32 bb 3e 06 06 aa 3e 54 6b b0 3e
       0.23571785 0.36561587 0.3320772 0.34456885
000210 fa 7c a1 be b4 cf c4 3e 54 ec 14 3e d7 8a 31 3e
       -0.31540662 0.38439715 0.14543277 0.1733812
000220 63 81 cf 3e 34 e2 db bc 30 ef 22 3e 86 bb b5 bd
       0.40528402 -0.02684126 0.15911555 -0.08873658
000230 32 09 d0 be e4 5d 52 3e 67 d8 35 3e df df 8d bd
       -0.40632015 0.20543629 0.17758332 -0.06927466
000240 25 65 9c bd 60 b4 31 be 51 42 4f 3d 81 3f 81 be
       -0.07636479 -0.17353964 0.050600354 -0.25243762
000250 e8 a1 40 be 9c 20 c5 3e 68 f5 75 be e8 ff c5 3d
       -0.18811762 0.3850144 -0.24019396 0.09667951
000260 50 32 17 be 21 9b 5d bc 38 88 f3 bd 75 0c 40 3e
       -0.14765286 -0.013525755 -0.11891216 0.18754752
000270 24 32 a5 be fd 07 a0 bd 0d 7a df be bd 19 4e 3e
       -0.32264817 -0.07814024 -0.43647805 0.20127006
000280 89 a2 39 be 55 de 6c be 85 d3 bb 3d 56 a5 9c 3e
       -0.18128408 -0.23131688 0.091712035 0.3059489
000290 19 ec b7 be 89 77 25 be d0 44 8a bd 29 59 98 3e
       -0.35922316 -0.1615888 -0.06751406 0.29755524
0002a0 e8 85 22 be 54 d8 1d be e5 ce 08 be cc d6 e5 3d
       -0.15871394 -0.15414554 -0.13360174 0.1122261
0002b0 43 f5 97 3c be 40 92 bd 17 dd c3 be 1e f6 7b 3e
       0.018549567 -0.07141255 -0.38254616 0.24605605
0002c0 73 c5 d7 3e ee af 28 be 47 84 e9 bd e9 85 b3 3e
       0.4214283 -0.16473362 -0.11402183 0.35063103
0002d0 80 d7 de bd 33 38 a4 3e ff f0 cf be 44 03 c0 3e
       -0.10880947 0.32074127 -0.40613553 0.3750249
0002e0 c7 0c 5d 3e ef 3e 53 3e ea b0 09 be eb 11 58 3e
       0.21586905 0.20629476 -0.13446394 0.21100585
0002f0 77 79 dd be 23 17 1a be d3 48 0b bf 35 f3 3d be
       -0.43256733 -0.15047888 -0.54407996 -0.18549807
000300 9e ca 64 bd f5 da 32 be b1 a2 7c 3d 3d f0 68 3c
       -0.055857293 -0.17466338 0.061678592 0.0142174335
000310 07 47 9d be e9 19 a4 3e 71 4a fe be 44 69 a8 3e
       -0.30718252 0.32051018 -0.4966617 0.3289281
000320 40 a9 a5 be 53 ed 8e be f6 b7 86 3e cb d8 95 3d
       -0.3235569 -0.2791544 0.26312226 0.073167406
000330 4e ff 4a bd 87 b6 1d be b6 e7 95 be 17 39 38 3d
       -0.049559884 -0.1540166 -0.29278344 0.04497632
000340 f4 f8 9d 3e 5d 43 2d 3e 4f 08 06 3e 33 75 c3 bd
       0.30854 0.16920228 0.13089107 -0.09543838
000350 51 03 21 be 8a 42 8d 3e ec b3 12 bf 32 54 41 be
       -0.15723921 0.27589828 -0.5730579 -0.18879774
000360 8e 90 dc bd 54 d1 5f 3e b1 ac 38 3e a4 ad 77 be
       -0.10769759 0.21857196 0.18034627 -0.24187332
000370 6a b1 0f 3e 53 9a c8 bd 95 a9 d1 bd 49 e7 23 bc
       0.14032522 -0.0979506 -0.10237423 -0.010003873
000380 0c c1 44 3f 04 62 4c 3f e1 19 d8 be fe 5b 39 be
       0.76857066 0.7983706 -0.42207244 -0.18101498
000390 6f b4 2e bf 6c a8 35 bf e2 d5 53 3e e2 ca 47 3f
       -0.6824407 -0.70960116 0.20687059 0.7804395
0003a0 df 66 f3 bd ab 83 51 3e 0c 0d 9f be 8f 4b 98 3e
       -0.118848555 0.20460384 -0.3106464 0.29745147
0003b0 bb 31 89 be dd 4b ca bd a3 68 2f be c6 9b 3a bd
       -0.26795754 -0.09877751 -0.1712976 -0.045558713
0003c0 03 36 31 be 52 f5 c7 bb f5 b7 28 bf db 55 30 be
       -0.1730576 -0.0061022425 -0.65905696 -0.17220251
0003d0 62 78 02 bf 6e 2e 87 3d 03 3e c3 be 1b 83 e6 3a
       -0.5096494 0.06600653 -0.3813325 0.001758668
0003e0 fc 7b 13 be eb cb 56 be 69 7b c7 3e b3 4a a3 3d
       -0.14402765 -0.20976226 0.38961342 0.07973232
0003f0 54 b9 91 bd 41 d8 74 be 0a a0 b6 be 82 97 72 be
       -0.07115427 -0.2391062 -0.35668975 -0.23690608

rnn.bias_ih_l0 f4 [32]
000000 90 0c de bd a8 8b 61 be 9f 43 08 3f e0 d7 45 be
       -0.1084224 -0.22025931 0.5322818 -0.19320631
000010 29 b8 8f 3f 01 d5 b5 3e 8e b8 a4 3e a2 c2 56 be
       1.1228076 0.35514072 0.32172054 -0.20972684
000020 73 ec 72 bb 06 7a 07 be 84 07 22 3d 0b f8 85 3e
       -0.0037067204 -0.13230142 0.03955795 0.26165804
000030 4b 5c 00 be a6 8d 58 3d 02 21 46 3c 8a 19 c5 be
       -0.12535207 0.05286946 0.012092831 -0.38496047
000040 de 78 f0 3e bb 33 84 bd e6 85 6b be 55 5a 5d 3d
       0.46967214 -0.06455179 -0.23000297 0.054041225
000050 29 0d 92 3d 24 75 77 3d a9 20 b3 3e 96 dd af 3e
       0.07131416 0.06041445 0.34985855 0.34348744
000060 5d 84 35 3e e4 7d dd 3e 2c 4f 4e 3e 95 a6 be 3e
       0.17726274 0.4326011 0.20147389 0.37236467
000070 4c 1d 00 3f a6 fd 86 3e 9c 03 e7 3e 7c 10 02 3e
       0.50044703 0.26365393 0.4511994 0.12701601

rnn.bias_hh_l0 f4 [32]
000000 b3 13 06 be 3c d6 22 3d 96 10 41 3e 9f a2 74 be
       -0.13093452 0.03975509 0.18853983 -0.2389016
000010 2f 18 53 3f a9 25 de 3d ed e1 ae 3e 09 ad 23 be
       0.82458776 0.10847027 0.34156743 -0.15983976
000020 78 58 b3 3e 89 0c 84 bd bc fa 4b 3e fc a4 4c 3d
       0.35028434 -0.064477034 0.19919866 0.04996203
000030 f6 a4 8f be 1a 2e ab bd 70 4e c0 bd 4a 01 da 3b
       -0.28055543 -0.083584026 -0.09389961 0.0066529857
000040 68 d4 28 3e 69 b8 d9 3e 56 d8 8b 3e 37 07 4b 3d
       0.16487277 0.42523506 0.2731349 0.049567427
000050 d2 87 f2 bd 2e 17 c7 3c e4 0d 91 3e 82 af d7 3e
       -0.11842312 0.024303045 0.2833091 0.4212609
000060 5f be e2 3e 66 3a 69 bd d4 cc 6d 3e dc f7 23 bd
       0.44285867 -0.05694046 0.23222667 -0.0400313
000070 f4 7a 91 3f 54 bb cb bd 92 27 c0 3e 75 ec c7 3d
       1.1365647 -0.099478394 0.3753019 0.097618975

reg.0.weight f4 [8, 8]
000000 53 76 03 3e 4a be f2 bd 98 39 de 3e 14 ba b8 3e
       0.12838106 -0.11852701 0.43403316 0.36079466
000010 ca be 3f bd 3a 35 ea 3e 20 ba d9 3e 4c 60 ca 3e
       -0.04681281 0.45743734 0.42524815 0.39526594
000020 e7 45 3f be d7 2c 8c be aa 4a 25 bf 8f 1b d7 be
       -0.1867901 -0.2737796 -0.64567053 -0.42013213
000030 15 00 7d be 41 9f f4 be 7e 84 b3 be f2 a1 aa bd
       -0.24707063 -0.4777775 -0.3506202 -0.0833167
000040 0a 24 29 3d a1 59 02 3f 71 0d a4 3e a7 3f d8 3e
       0.041294135 0.5091801 0.32041505 0.42236063
000050 d7 84 7c 3f f2 fc 41 3e f5 38 18 be 5f 19 64 3d
       0.986402 0.18944147 -0.14865477 0.05568826
000060 b3 8d 5c 3e 25 25 b6 3d dc 3b e8 3e 61 38 82 3e
       0.21538429 0.088938035 0.4535817 0.2543364
000070 53 6e 2b bd 6e 31 65 3e ec ec ac 3e d7 3c 30 be
       -0.04185326 0.22382137 0.33774507 -0.17210709
000080 f9 c0 4d 3e 95 0d 39 3e 51 9a c0 bd 6d 81 18 3d
       0.20093144 0.18071587 -0.094044335 0.037232805
000090 0d 82 bb 3e b6 3e 00 3e 9e e8 a2 3c e7 85 b4 3d
       0.36622658 0.12523922 0.019886311 0.08814602
0000a0 00 1d 5a bb fe 1c cc bd bb 95 d7 3e 9c b9 ac 3e
       -0.0033281446 -0.09966467 0.42106423 0.3373536
0000b0 52 58 36 3f 81 0f 24 3e c0 e8 d5 3e f3 75 8b 3e
       0.71228516 0.1602154 0.41779137 0.27238426
0000c0 1a ab f9 be 0f 7c c1 be 1a b3 7e be d4 f1 ed 3c
       -0.48763353 -0.37789962 -0.2487301 0.029045977
0000d0 22 3a 98 be fa 03 b3 bd d7 69 23 be d7 e2 2a be
       -0.29731852 -0.08740993 -0.15958343 -0.16688095
0000e0 2d 93 76 be ef 07 18 be f1 67 16 be 1b 61 22 be
       -0.2407958 -0.14846776 -0.14688088 -0.15857355
0000f0 2f f1 4a bf 0b 24 2b be 08 57 67 be e2 ab 95 bd
       -0.79274267 -0.16712968 -0.22591794 -0.07308175

reg.0.bias f4 [8]
000000 85 a5 88 3e 3b 4f 0c 3e 84 3b 06 be 97 02 63 3e
       0.2668878 0.13702099 -0.13108641 0.22168957
000010 01 ff 58 be 9a e5 2d bd 54 f4 18 3e a9 86 73 3e
       -0.21191026 -0.042455293 0.14936954 0.23781838

reg.2.weight f4 [1, 8]
000000 88 6f 6e 3e cb 3b b4 be be bf 60 3e 91 2b 37 3e
       0.23284733 -0.35201868 0.21948144 0.17887713
000010 21 4b 75 3c cb 53 cc 3e 97 4c 08 bf f0 dc 8c be
       0.014971525 0.3990768 -0.53241867 -0.27512312
