time-series-prediction-lstm-pytorch/net.pth (torch, 4671 bytes, 8 tensors)

rnn.weight_ih_l0 f4 [32, 7]
000000 a0 2b 03 40 b7 3f 65 3f b6 da 20 3f 72 5e 14 3f
       2.0495377 0.89550346 0.62833726 0.5795661
000010 8c 7b 74 3f f8 2d 16 3d 63 5b c1 bf 8d 17 8c bf
       0.9550102 0.036664933 -1.5106014 -1.0944687
000020 33 bb 60 bc ec a7 b0 3d 6c ac 30 3f db c2 84 3d
       -0.013716507 0.086257786 0.69013095 0.06482478
000030 a1 63 9a be 34 13 56 3e 04 0f 2b bf ee 0a 31 3f
       -0.30154136 0.20905763 -0.6681979 0.691573
000040 ac 52 b8 bd 27 3b 89 3e 6e 1c c1 3d 34 d4 ae be
       -0.090001434 0.26802942 0.09429251 -0.34146273
000050 ca 3c 8d bf b5 c1 32 bf b5 c3 e7 be 32 b4 8a 3d
       -1.1034176 -0.69826823 -0.452665 0.06772651
000060 2c 43 07 bf 8d 76 a8 3e 8c e5 24 3f 9b c5 ec 3d
       -0.5283687 0.32902947 0.6441276 0.11561128
000070 ed eb c3 3d d7 db ed be 7f ec d3 3d 78 7a fe 3e
       0.09566484 -0.46456787 0.103478424 0.4970281
000080 f3 ea 6f 3e 71 55 12 3f c3 60 4e 3e 79 c0 17 bf
       0.2342947 0.57161623 0.20154099 -0.59278065
000090 90 f5 fa 3e 0a 48 8a bf 2b 0e b7 be cb c3 77 bb
       0.49015474 -1.0803235 -0.35752997 -0.003780591
0000a0 ee 92 0d 40 69 e1 1e 40 41 aa 92 bf b0 ad 7b 3f
       2.2120929 2.482508 -1.1458207 0.983119
0000b0 03 fd e5 3d e9 80 ad bf b7 42 43 be da 13 c4 3f
       0.11229899 -1.3554965 -0.19068418 1.5318558
0000c0 a4 d7 1c be 3c e5 fb 3e 2e 6a be 3e e5 34 da 3e
       -0.15316635 0.4919833 0.37190384 0.4261848
0000d0 9e 07 96 3d 58 c5 85 3e b2 5e 15 3f 2a df 63 3f
       0.073256716 0.26127124 0.5834762 0.89012396
0000e0 68 ae d1 3f 2f 50 28 3f a8 6b 9c 3f 27 4e 03 3f
       1.638135 0.6574735 1.2220354 0.51291126
0000f0 70 e7 8d 3e 61 b4 62 3e 3b 41 90 bf 5e b2 f4 be
       0.27715635 0.22139122 -1.1269907 -0.47792333
000100 c3 a7 11 bf 23 e1 10 3f 75 6b 3f 3f 88 0a 1a 3d
       -0.5689661 0.5659353 0.7477334 0.0376077
000110 3e b1 32 bd 60 a5 3e bf 2f 48 ce 3f 0b 0f c0 3f
       -0.043626063 -0.7447109 1.6115779 1.5004591
000120 91 d2 ae be 58 16 ef be 7b a8 43 3c 67 37 46 3f
       -0.34145024 -0.46696734 0.011942024 0.7742829
000130 bc 66 c5 3f f0 ab 60 bf 52 3e b9 3e 02 5e 9c 3e
       1.5421977 -0.87762356 0.3618036 0.30540472
000140 8a ef 1f be ad dc 25 bf fb 69 0d bf 70 cc 00 3d
       -0.1561872 -0.6478985 -0.5523984 0.031444967
000150 17 16 1f be 6d 48 57 3d 90 39 ea 3b cc 5b 44 be
       -0.1553577 0.052559305 0.0071479753 -0.19175643
000160 c7 c9 23 3e 7f 64 14 3f 1f 87 88 3e 8e 83 97 c0
       0.1599494 0.57965845 0.2666559 -4.734809
000170 f5 e6 64 3f 56 4d 39 3f 35 04 83 3f a2 49 07 3f
       0.8941491 0.7238363 1.0235659 0.5284673
000180 76 73 fe be 94 d4 e5 be 89 4e 30 3f be 77 e2 bf
       -0.49697465 -0.44888747 0.68869835 -1.7692792
000190 2b 00 18 bf 13 bf d3 3e e9 65 d5 3e ac 43 68 3f
       -0.59375256 0.41356716 0.41679314 0.9072826
0001a0 cb 00 a9 bd d8 db 07 3f 5a 36 b2 3c 16 b2 0a 3f
       -0.08252104 0.5306983 0.021754432 0.5417799
0001b0 02 84 f5 3d 2c 7b 0a bf 81 c8 b2 3e 23 a0 21 3f
       0.11988069 -0.54094195 0.34918597 0.63134974
0001c0 7a de 16 c0 4a 5d 1d 3e 8e 8c 9b 3e 5a 6c d0 be
       -2.357329 0.15367618 0.30380672 -0.40707666
0001d0 15 3b 35 3f c0 f8 72 3f 45 80 50 3f 20 95 c9 3f
       0.7079328 0.9491081 0.81445724 1.5748634
0001e0 b6 98 af be 1f cf b3 3d 41 d9 60 3e 2e 20 23 3e
       -0.34296197 0.087797396 0.21957876 0.15930244
0001f0 d3 6d cd be f6 20 b0 be 3a 5b d2 3f fc 20 94 3f
       -0.40122852 -0.34400147 1.643409 1.1572566
000200 dd 58 4c 3f 78 e6 c2 be e2 a3 7f bf 63 93 87 be
       0.79823095 -0.3806646 -0.9985944 -0.26479635
000210 a9 d4 9d bf f4 05 f9 be c7 47 24 bf c0 c4 23 be
       -1.2330524 -0.48637354 -0.64172024 -0.15993023
000220 47 ef d5 be c7 df da 3d 8c 8c 09 3f 0c 9b 80 3f
       -0.41784117 0.106872134 0.5373008 1.0047317
000230 34 20 f8 3e e1 28 01 3f f8 91 9d 3e 2d cd 00 bf
       0.4846207 0.50453 0.30775428 -0.50313073
000240 cb 00 02 bf 77 91 ff be c5 1d 62 3e bf 95 a7 bf
       -0.5078246 -0.49915668 0.22081669 -1.3092574
000250 a6 88 2a bf ed 57 6e 3f ac ed 81 be 9b 0d 0b bd
       -0.6661476 0.93102914 -0.25376642 -0.033948522
000260 32 63 0b bf 20 cf 73 3f 24 4b e1 3f cc 58 98 be
       -0.54448235 0.9523792 1.7601056 -0.29755247
000270 65 6d a2 be b3 d1 4c bd c4 7b 7b 3f b0 88 6c 3f
       -0.31724086 -0.050004672 0.98235726 0.9239607
000280 08 51 85 3e 24 40 22 be 51 fa bb be 36 6a 20 bf
       0.26038384 -0.1584478 -0.36714414 -0.62662065
000290 10 8e ee be 05 23 c5 be 0e 9e 6c bf 84 84 74 bf
       -0.4659276 -0.3850328 -0.9242867 -0.955147
0002a0 cd cc 39 40 40 02 59 40 1d f4 76 3f 00 28 81 bf
       2.903125 3.3907623 0.9646624 -1.0090332
0002b0 b5 48 56 3f b1 8b 14 3d e0 ba 17 c0 ea 80 0d c0
       0.8370469 0.036266033 -2.370781 -2.2109933
0002c0 8e 73 1f 3f 1c 26 bc 3e 9f 48 00 3f ea 95 9f bd
       0.622857 0.36747825 0.5011081 -0.07792266
0002d0 8c c7 27 bf 42 1d 5b 3e 9c 77 6d bf b7 6f db 3f
       -0.6553886 0.2139788 -0.92760634 1.7143468
0002e0 cd e6 f4 bf f5 2e 97 3f f1 3f c6 3e c4 c6 64 3f
       -1.9132935 1.1811205 0.38720658 0.8936579
0002f0 7f f8 84 3f 7f ef 7a c0 5f 61 6f 3b aa a3 d2 3d
       1.0388335 -3.9208677 0.0036526544 0.10285123
000300 13 ac c3 be 8c 09 dc bd 6d 2d 6a 3f 85 f4 6f be
       -0.3821722 -0.107440084 0.91475564 -0.2343312
000310 df 52 2b 3f 86 77 03 bf d7 4a 4e 3e 0e 03 3b 3f
       0.66923326 -0.51354253 0.20145737 0.73051536
000320 a0 c0 f4 be bc 53 d7 be 26 10 6c 3e 74 ab 96 c0
       -0.4780321 -0.42056072 0.23053035 -4.7084293
000330 cf 1e 41 3f a6 b1 30 3f 4e fe d1 3e 88 63 a4 3f
       0.75437635 0.6902107 0.41014332 1.2842875
000340 3e d0 92 be 5c 6c 8b bd 70 b0 3c 40 6f 44 13 bf
       -0.286745 -0.06807777 2.948269 -0.57526296
000350 e9 86 b8 3f aa 3a ff be 30 a1 73 be 4e 4b ed 3f
       1.4416171 -0.49849445 -0.23791957 1.8538606
000360 4a 1d d5 3f ca db 94 3e 9a cf 2f 3f 64 bb 49 3f
       1.6649563 0.29073936 0.6867615 0.7880156
000370 df b2 10 3f dc 14 29 3f 01 3a e9 3e 66 f8 2a 3f
       0.56522936 0.66047454 0.45552066 0.66785276

rnn.weight_hh_l0 f4 [32, 8]
000000 25 bc 2a bf f5 21 c7 bc 57 91 1b 3f 3a af 75 3f
       -0.66693336 -0.024308184 0.60768646 0.959705
000010 75 f7 2d bf b8 69 06 c0 bb 5e 59 40 01 bd 13 bf
       -0.67955714 -2.1002026 3.396407 -0.5771027
000020 91 b3 7e 3e 22 0d 38 3e b6 14 00 3d f1 09 39 bf
       0.24873187 0.1797376 0.03126975 -0.72280794
000030 9a 9e 0f 3e a2 f8 77 be 91 3e 0f bf 84 1d 1a bf
       0.14025345 -0.2421594 -0.55954844 -0.6020129
000040 1e 3d 2f 40 8a 4d e8 3e 20 c2 9d 3f 2c 4e 98 bf
       2.7381053 0.45371658 1.2324867 -1.1898856
000050 af d1 b3 be 77 5b 00 3f 3e 45 3d bf 3a b1 20 bf
       -0.35120913 0.50139564 -0.7393378 -0.62770426
000060 3a 0c 32 3f 00 2b fc 3e be 82 81 be 24 06 7f bd
       0.69549906 0.49251556 -0.2529506 -0.062261716
000070 9c 2c 7b 3e 5f 51 14 3f b4 b6 15 c0 39 0f 4a bf
       0.24528736 0.5793666 -2.3392763 -0.7892948
000080 0a a8 95 3f f3 cf ae bd 1d 36 d2 be ac 70 2d 3f
       1.1691906 -0.08535757 -0.4105691 0.6775005
000090 fd 4b da 3e c6 2f 98 bf 00 2f 43 3f a6 21 43 bc
       0.426361 -1.1889579 0.7624359 -0.011909878
0000a0 cd 4d 01 bf 79 df b0 3c 93 bb 9c 3f 50 48 15 bf
       -0.5050934 0.021590935 1.2244743 -0.58313465
0000b0 ce ba 3f bd 3c 26 22 bf 2c fe 18 3f 3d c0 e3 bf
       -0.04680901 -0.6333959 0.59762836 -1.7793041
0000c0 e0 55 97 bf 26 16 9d 3f 17 7f d0 3d 16 11 87 40
       -1.1823082 1.2272384 0.101804905 4.2208357
0000d0 51 bd 1f bf 86 aa 35 c0 a0 0d e5 3f 40 2c c9 bf
       -0.6239825 -2.838533 1.7894783 -1.5716629
0000e0 01 c2 c8 3e ea 8b 54 3e 91 6e e7 3e a7 97 3b 3e
       0.39210513 0.20756498 0.45201543 0.1831957
0000f0 21 0e 3a bf 6e aa 09 be 23 3a 0f 3e d5 69 df 3d
       -0.7267781 -0.1344392 0.13987021 0.10908858
000100 43 6c 20 bf f7 a9 93 3e 40 8c 93 3d 3f b2 85 be
       -0.62665194 0.2884061 0.07204485 -0.26112553
000110 d4 a5 63 be e5 17 d7 be 65 7d 3a 3f a2 0e 6e bf
       -0.22231227 -0.42010418 0.72847587 -0.9299108
000120 de f1 03 bf 10 7d 5d 3e d2 25 7b be 31 ee 80 be
       -0.51540935 0.21629739 -0.24526146 -0.25181726
000130 7a 73 6a be fa bb 95 be 77 50 91 3f 60 c8 d8 be
       -0.22895613 -0.29244977 1.1352681 -0.42340374
000140 45 b4 c5 3f 29 db e3 3e 96 2b 8d bf 9a e0 c8 3f
       1.5445639 0.44503143 -1.1028926 1.5693543
000150 39 57 3c 3e 7d 21 71 be 0b 25 0f 40 6e b6 0d 3d
       0.18392648 -0.23547931 2.236636 0.034597807
000160 16 b0 80 be 63 2a 5d be f3 4b 42 be 93 3d 46 3e
       -0.25134343 -0.215982 -0.18974285 0.19359426
000170 27 16 a9 3e 28 7d 05 3f b6 0d e0 be 32 be da be
       0.33024713 0.521441 -0.4376046 -0.42723233
000180 c2 0a 6f 3f da d4 08 bf 4e a8 a3 be d7 19 54 3f
       0.9337579 -0.53449786 -0.31964344 0.8285193
000190 75 b9 09 3f 2f f8 5a be b6 af ef 3e 44 e6 a4 3e
       0.5379861 -0.21383737 0.46813744 0.3220693
0001a0 3a a7 87 3f 00 c1 c9 be 03 ca 9d be 4c 4a ac be
       1.0597908 -0.3940506 -0.30818185 -0.33650434
0001b0 2e 05 4e be 9d 37 70 3f 88 d1 a6 3f 8c 3f eb bf
       -0.20119163 0.9383486 1.3032694 -1.8378768
0001c0 5a 1a bd 3f f9 bd d2 3e 50 6e 36 3f c6 ef 86 be
       1.4773667 0.41160563 0.71262074 -0.26354808
0001d0 28 29 87 be f3 52 99 3e 87 99 c3 be 15 e0 9e bc
       -0.26398587 0.29946098 -0.3820307 -0.01939396
0001e0 00 fa 35 bf e9 c5 d6 bd 51 07 df bd f8 5f 89 3f
       -0.71084595 -0.10486967 -0.10890067 1.0732412
0001f0 3b 84 c6 3e dc c5 18 3f cb d8 1a bf d0 9d 93 3e
       0.3877276 0.5967691 -0.6048705 0.2883134
000200 ac 39 5d 3e 46 c8 0f bf ae a1 cb be b8 93 a2 be
       0.21604031 -0.5616497 -0.3977179 -0.31753325
000210 69 2a f1 3e 31 c3 91 3d 69 05 8a be 54 e3 a2 3c
       0.4710267 0.07117308 -0.26957253 0.01988379
000220 64 8d c2 3d 4a 33 1b bd bf c9 41 bf 13 bf e9 3d
       0.09499624 -0.03789071 -0.75698465 0.11413398
000230 19 42 02 bf 1a 46 75 3e 12 15 60 3f ae 6a ed bd
       -0.50882107 0.23952523 0.8753215 -0.11592613
000240 4c 20 c6 3f 31 55 59 3f af 72 50 bf 71 e2 2e 3f
       1.5478606 0.84895617 -0.81424993 0.6831427
000250 44 19 8a be c0 36 09 be 2d eb 5a 3f 61 34 cb 3e
       -0.269724 -0.13399792 0.855151 0.396884
000260 78 b0 63 be c2 85 20 3e 59 80 05 bf f4 d2 e7 be
       -0.22235286 0.15676025 -0.5214897 -0.45278132
000270 6e bb b8 3e 6b 22 ac bc 80 ab 28 3e 47 b6 97 bd
       0.36080498 -0.021012506 0.16471672 -0.074078135
000280 51 7b df bd d3 a9 3e be f4 8a fc 3e 70 8f 6e bf
       -0.109121926 -0.1861947 0.49324763 -0.9318762
000290 e2 71 f5 be d3 7e 93 3e 51 71 7a be b2 e9 25 be
       -0.47938448 0.28807697 -0.2445729 -0.16202429
0002a0 18 1e 2b bf 01 74 22 bd b7 ee 03 bf 46 37 c2 3e
       -0.66842794 -0.03966141 -0.51536125 0.37932795
0002b0 e3 52 b9 3e c8 fb c5 be 98 f9 90 bf 09 f5 98 bc
       0.3619605 -0.38668656 -1.132617 -0.01867153
0002c0 92 7f 38 3f f5 a1 bc 3d c3 d3 ca be 07 25 4b bf
       0.72069657 0.09210578 -0.39614686 -0.79353374
0002d0 11 30 0e 3f df ef cd 3c 98 6f 98 3e 9e 85 7a 3c
       0.55542094 0.025138794 0.2977264 0.015290646
0002e0 05 8d 0c be 8b 1f 97 bd 06 c0 1b 3c 6a 0b 03 bf
       -0.1372567 -0.07379063 0.009506231 -0.5118929
0002f0 44 2a 75 be 5a 55 c0 3d 19 4a e9 bd ed f0 e8 be
       -0.23941904 0.093912795 -0.11391086 -0.45496312
000300 19 e0 35 c0 ab 54 b3 be 9e 0c f6 3f 33 f4 1a bf
       -2.8418028 -0.35025534 1.92226 -0.6052887
000310 46 3b 9b 3d ee d2 a8 bf 09 0a 59 3f 88 dd 8f bf
       0.07579665 -1.3189371 0.8478094 -1.1239481
000320 1e 08 5f be 58 a1 c3 be 54 75 23 3f 0b 89 28 bf
       -0.2178044 -0.38209033 0.63850904 -0.6583411
000330 a9 e9 97 bd 0c b2 02 bf ca 1e e5 be f5 b7 54 bf
       -0.07417614 -0.5105293 -0.44750053 -0.83093196
000340 46 a9 37 40 f6 81 8f 3f a8 c1 10 be 2d 81 24 40
       2.8697066 1.1211536 -0.14136374 2.5703843
000350 4b 38 b6 3f 3d 0c 26 be 46 96 ea be 12 d6 1e bf
       1.4235929 -0.16215606 -0.45817775 -0.62045395
000360 50 cd b1 3e 32 66 c8 3e 63 52 0f bf 87 25 9a be
       0.34726954 0.3914047 -0.5598509 -0.30106756
000370 03 00 30 3e ef be 09 3f cb 90 34 bf 1e 59 76 bf
       0.17187504 0.53806967 -0.70533437 -0.9622973
000380 7e 51 d3 3f 97 e7 a2 bf a7 b7 ce bf 87 97 51 3f
       1.6509244 -1.2726926 -1.6149796 0.8187184
000390 e0 b3 fb 3d b3 f3 63 be 7f db 2d 3f 78 bb e9 3d
       0.12290168 -0.22260933 0.6791305 0.1141271
0003a0 af 1f 26 c0 ef 64 8e be 98 9d 93 be ac 36 61 3e
       -2.5956838 -0.2781138 -0.28831172 0.21993512
0003b0 11 e4 47 3f e7 c6 ca bd bd f5 92 3f 01 1c de bf
       0.78082377 -0.09901219 1.1481243 -1.7352296
0003c0 82 24 f5 3f 91 84 79 3d 6e 60 93 3e 49 52 ed 3e
       1.9151766 0.06091744 0.28784508 0.4635184
0003d0 ce 89 08 bf 84 c1 0a c0 b6 e3 5c 3f 5a bd b9 bf
       -0.53335273 -2.1680613 0.8628496 -1.451091
0003e0 ee 7b 3e 3e ea 29 55 3e e5 dc d7 3e a3 d1 ef be
       0.18601963 0.2081677 0.42160717 -0.46839628
0003f0 9f f7 3f bf 21 0e 16 be 2f b7 be 3d 47 26 ab be
       -0.74987215 -0.14653827 0.09312283 -0.3342764

rnn.bias_ih_l0 f4 [32]
000000 62 1a 95 3d 65 56 ac 3c 9a d7 80 3e 53 9a 28 3d
       0.07280423 0.02103729 0.2516449 0.0411628
000010 b7 89 af 3e 27 b7 17 3e df 4e d4 3d d4 ab 71 3f
       0.34284756 0.14815961 0.10366606 0.94402814
000020 f4 73 d4 be 70 44 f1 3d f7 c1 4f 3e 2a 70 de be
       -0.41494715 0.117806315 0.20288835 -0.4344495
000030 ca aa c7 bd 62 20 20 be 5c b2 81 be 45 c0 c9 be
       -0.09749372 -0.15637353 -0.2533139 -0.39404503
000040 8a f5 5a 3d df 1e 89 3e 6d e1 71 3e 2f aa d6 3b
       0.05345682 0.26781365 0.2362115 0.006551049
000050 0d 45 92 bd 56 7f cd 3d 7f fb 10 bf 01 10 a9 3d
       -0.07142077 0.10034053 -0.5663375 0.08255006
000060 7d 78 f9 be 0f 26 53 be 98 ae f6 be 91 53 10 3e
       -0.48724738 -0.20619987 -0.4818008 0.14094378
000070 26 e6 09 3e d4 d9 f0 be 2c 52 ab 3e a9 a2 dc 3e
       0.13466701 -0.4704119 0.3346113 0.4309285

rnn.bias_hh_l0 f4 [32]
000000 c1 81 a6 3d 95 60 86 bd 57 f4 31 be 6b b8 9d 3e
       0.08130217 -0.0656139 -0.17378365 0.30804762
000010 7a 43 8f bd db fc 6d be 05 11 86 bd 21 b9 51 3f
       -0.06995292 -0.23240988 -0.06546215 0.8192311
000020 d4 e0 96 be 12 f8 cc be f6 1c 0c be 81 0c 50 3e
       -0.29468405 -0.40033013 -0.13682923 0.2031727
000030 28 91 84 be 12 8a fe be 3c 01 e6 bd 27 78 de be
       -0.25891995 -0.49714714 -0.11230704 -0.43451044
000040 8b 5b 01 3e 06 58 87 3e ec 22 82 3c 69 08 d7 bb
       0.12632577 0.26434344 0.015885793 -0.006562282
000050 83 9e 52 be c2 aa 22 be 59 84 5a 3c 4e 9d bb 3e
       -0.2056828 -0.15885451 0.013337218 0.3664345
000060 a4 17 02 bf fb a2 9a bd fc c5 00 bf c9 a4 4c be
       -0.5081732 -0.07550617 -0.503021 -0.19984736
000070 a6 d2 a7 3b cb 81 90 be be 1f 08 bc e7 9b 52 3f
       0.005121547 -0.28224024 -0.008308349 0.8226914

reg.0.weight f4 [8, 8]
000000 9b 55 1a bc cc b8 ae 3e b0 7b 43 3e b2 45 9a 3d
       -0.009419824 0.34125364 0.19090152 0.075328246
000010 68 07 4f 3d 2f c4 74 be ed 5c 4b 3f 42 98 b8 3d
       0.050544173 -0.23902963 0.7943867 0.09013416
000020 8d cb b2 be bd 59 ff 3c c1 f8 cb be 11 d9 d1 bd
       -0.34920922 0.03117072 -0.39838222 -0.1024648
000030 27 f9 e7 3e eb 13 b6 be ba 5d 07 bf f7 94 04 bf
       0.45307276 -0.3556207 -0.5287739 -0.517898
000040 18 66 0f 3e 25 a1 47 bd 38 b4 9d 3e f9 49 70 3e
       0.1400379 -0.048737664 0.30801558 0.23465718
000050 bd 13 d4 3d 2f d0 06 3f 43 e2 b9 3d 0f 4b 16 3f
       0.10355327 0.5266141 0.09076359 0.5870828
000060 bd b4 6a bf dc 49 08 3f 97 ef 41 be 1c 06 89 be
       -0.91682035 0.532377 -0.18939053 -0.26762474
000070 2e 7d 49 bb 1d ab 33 be f4 ea cb bd 4a dd 85 3e
       -0.003074478 -0.17545743 -0.09956923 0.26145393
000080 87 a6 87 3e ab ee aa be a8 74 44 bf da 7f 4c 3e
       0.26494238 -0.33385214 -0.76740503 0.19970647
000090 07 9b db 3e 86 8b 9d bf 98 92 41 bf 8c ac 2b 3d
       0.42891714 -1.2308204 -0.7561431 0.0419126
0000a0 72 1d 94 3f 43 95 f3 be b3 3a f4 3d d9 88 11 3e
       1.1571486 -0.47574815 0.119252585 0.1421236
0000b0 cd 5e ae be 32 e2 13 3e 2c 2e a6 3d 4f 7c 93 be
       -0.34056702 0.14441755 0.08114275 -0.28805777
0000c0 b1 de 98 be f2 00 9d bb 89 f8 24 3f cf fc 17 be
       -0.298574 -0.0047913725 0.64441735 -0.14842533
0000d0 ce fa 1f be 3c 5c 3b 3f 84 9d e8 3e 1d 50 af be
       -0.15623018 0.73187613 0.45432675 -0.3424081
0000e0 3b b2 e8 bf da 9e bf 3e b8 56 43 bb e5 db 1e be
       -1.8179392 0.37425882 -0.0029806327 -0.1551357
0000f0 e9 28 81 3c 49 e7 d5 3e 20 e1 2c bf e0 50 2e 3f
       0.015766578 0.4177802 -0.67531013 0.68092155

reg.0.bias f4 [8]
000000 5e 53 99 3e 06 73 bd bd a1 c1 82 bd 4c 68 7f 3d
       0.29946417 -0.092504546 -0.06384588 0.062355325
000010 3b aa 18 3e 3d b0 66 3e 5b f7 4d 3e 74 68 d0 be
       0.14908688 0.22528167 0.2011389 -0.4070469

reg.2.weight f4 [7, 8]
000000 ed f6 39 bd 34 59 37 be c7 9a 5e be 0c d4 6a 3e
       -0.045401502 -0.17905122 -0.2173873 0.22932452
000010 81 94 6a be b0 68 a9 3e cb e0 9f 3c 08 e7 19 3e
       -0.22908212 0.33087683 0.01951637 0.15029538
000020 83 78 7f 3e dd 4f 24 3e 55 63 b2 3e 55 4d d1 3e
       0.24948315 0.1604609 0.3484141 0.40879312
000030 ff cb 05 bf 06 a3 45 3e f5 ed cb 3e 9c d0 af be
       -0.522644 0.1930047 0.39829984 -0.34338844
000040 08 38 96 bd 37 9e 67 be dd 06 33 be 2e 4f 48 be
       -0.07334906 -0.22618948 -0.17483087 -0.19561455
000050 01 a5 41 bf ba ec 0e bd dd 0f ad 3e 8c 0e ca be
       -0.756424 -0.03489373 0.33801165 -0.39464223
000060 6f ef b6 bd 97 25 2e 3d a6 54 6d be c6 71 67 be
       -0.08932387 0.042516317 -0.23176822 -0.22601995
000070 15 2b 01 bc 90 94 df 3e 2d f6 1f 3e fe af d0 be
       -0.007883807 0.43668032 0.15621252 -0.4075927
000080 2b a3 f6 be e9 15 05 3f 48 d4 b1 be 44 9c 1d 3e
       -0.48171362 0.5198656 -0.3473227 0.15391642
000090 e2 0a 21 3d ad ee f2 bd 82 b0 54 bf 2f ad 28 bf
       0.03931702 -0.1186193 -0.8308183 -0.6588926
0000a0 e2 72 d3 bd 5d ec 4b 3f ea 4f b0 be d2 3e 06 3f
       -0.103246465 0.79657537 -0.3443597 0.52439606
0000b0 22 fa b0 3d 56 9f 6e bd 7e 5e 83 be c5 3e 2f be
       0.08641459 -0.058257423 -0.2565803 -0.17113788
0000c0 92 e7 12 3f d4 bb 1e 3f 06 93 e5 be 5d ad 5e bd
       0.573846 0.6200535 -0.44838732 -0.05436455
0000d0 7e d8 5d 3d 12 52 c1 be 83 14 ae 3e ce f4 f1 3e
       0.05416154 -0.37757927 0.34000024 0.47257084

reg.2.bias f4 [7]
000000 45 5d 3d bd e3 34 15 be cc d0 a8 3d 51 6d bd 3b
       -0.046231527 -0.14570956 0.0824295 0.005780854
000010 83 1c 8c 3e 05 bc 18 3e 45 e9 de 3d
       0.27365503 0.14915474 0.108843364
