Q2/net.pth (torch, 4671 bytes, 8 tensors)

rnn.weight_ih_l0 f4 [32, 7]
00000000: 97c9 3f3b 49ac 0ebf cfc5 f1be 8773 1a3e
00000010: cac3 443f 4e79 7b3e d106 ca3e 5c6e 1040
00000020: b7da eb3c ecc7 073e e819 783e 0965 cf3e
00000030: 989a d9be 55b7 8bbf 4863 943f d162 02be
00000040: 9b4c 853f 4eef a83f f6c1 763f a380 41bf
00000050: d963 183f 161c 9dc0 ba27 3abf 8839 acbe
00000060: 5598 103f d6f1 2e3f 498f 7c3f 078b da3e
00000070: 4a8d b3bd 35e2 d93d b88c 983e 30c5 a03e
00000080: a9be 003f 18de 3a3f 6180 713f fc6c a3bd
00000090: c990 d23f 59db c63e 91e9 be3e e6f0 183f
000000a0: 84b7 a9bd 467f 3e3c 6bd9 a13f 8301 953e
000000b0: 3d0b 3dbe 6014 db3d 095a e43e 7a80 c93e
000000c0: 6c55 943f 63c0 b7bf 106e 443f 6cfd fb3d
000000d0: a9ce ae3e 4dd6 9bbe 9ce1 db3f c2ba 9640
000000e0: 03c0 febf b545 90bf 4f6d 66bf 8f5e 633e
000000f0: de06 ac3f b4af f33f c100 5dbf 0c24 6740
00000100: 6b55 d7be 1bcb 0e3e 0f65 1e3f 674d a3be
00000110: dc3e 89bf 2c84 29c0 9dcb bd40 f12c d53f
00000120: b6b1 85be 4b56 19bf df18 06be 2b7b 7dbf
00000130: a329 f63e a04e 863f c21a 003f fe34 e43e
00000140: f8be 093e 46f0 45be 8761 b53e 2614 79be
00000150: ea18 e43e bdd2 d13e 9a0d ef3e cf35 573e
00000160: 94d7 863e d7d4 a13e 858c 393f 7550 da3f
00000170: b5d5 553e 56e7 983e a509 1e3f b1fd 843f
00000180: 525b e23d 6ff6 9dbf 9a43 8ebf e2e3 a5be
00000190: 3d65 00bd e0e0 ca3e 7896 313e ca2d 373f
000001a0: 5673 813e 2a03 90c0 8e80 0fbf 50dc 603f
000001b0: fd8e 6a3f 7c87 59be 31df 55bf 7d8b d0bf
000001c0: d8e2 01bf 43cf 293f 7799 1f3f ae3c 8c3e
000001d0: f7be 52bf 801d 1abf 06f7 a2be ea7f d73f
000001e0: 76ba 8c3b 9a1f 97be 5434 ebbd 82ab c83d
000001f0: 6a7d 68bc 2224 63bf f181 b2bf 41cd a13b
00000200: 7914 f73e 9dc5 73bf 236a 3a3f 1454 b93f
00000210: ce34 023d 4f68 7bbf b7b3 053f 5487 91bf
00000220: 03d2 1ebf c25d 133f 766c 4b3f 7668 e73d
00000230: 35bd 9dbe b458 853e ee24 9a3e 9449 cb3e
00000240: da0b b73e 07c7 163f 201b 173f 2ab9 e6bd
00000250: 69ce 463d 2a1a 13bd 7bf6 ffbd 4666 ac3f
00000260: 38bc 843f 08c0 453f c176 e53d 9b8d 583d
00000270: dd96 183f 4fb9 4a3f 4791 3c3f e04d d93e
00000280: 32c7 883e c87e 543e 1be2 b83e cd0e 9cbf
00000290: 7690 cc3e 5105 533e 36eb dc3e 7a0d 3fbf
000002a0: 7a71 10bf 3645 653f 3cd5 8c3f 1e27 d43e
000002b0: 3d0a 783f 56da 9c3f ecd4 a63f ec94 1440
000002c0: 608c 53c0 ea6d 60bf e0f2 c53f 3911 9bbe
000002d0: 2190 1bbf 1f73 a83e 178c 0bbf f133 2ec0
000002e0: 05ce 913f 2669 e53f d966 b83d e032 63c0
000002f0: 3ed7 a8be 026a 97bf 630e 663f a8e9 a43e
00000300: 5762 c33e 7906 103f 2e1b f33d 1ee2 19c0
00000310: 79bc d03f 87af 243f bb76 483f 9e2d 863e
00000320: 52e2 b43e 6a42 333e 3cc1 093f 9f9b 3c40
00000330: 9fdc 7640 6328 2140 0fd8 b7be 20d2 00be
00000340: b391 3a3f 88ae af3e f2d5 ae3f 8768 41bd
00000350: 0856 9b3e dab7 c83e 8401 393f e318 073f
00000360: 42ef 2a3f b870 94c0 4410 9abf 4e75 be3e
00000370: 8e63 253f f9cd fabe 5d39 05c0 14d0 5b40
0.0029264444 -0.55731636 -0.47221228 0.15083133 0.7686125 0.24557993 0.39458326 2.2567358
0.028790815 0.13259858 0.24228632 0.4050677 -0.42500758 -1.0915323 1.1592798 -0.12733008
1.0414003 1.319803 0.9638971 -0.7558691 0.59527355 -4.9096785 -0.7271687 -0.33637643
0.5648244 0.6833776 0.98656136 0.42684194 -0.08767183 0.10638849 0.2979486 0.31400442
0.50290924 0.7299514 0.94336516 -0.079797715 1.6450435 0.38839224 0.37287572 0.5974258
-0.08286956 0.011627024 1.2644476 0.29102716 -0.18461318 0.106972456 0.4459994 0.39355832
1.1588569 -1.4355587 0.7673044 0.12304196 0.34142044 -0.30436936 1.7178226 4.7102976
-1.9902347 -1.1271273 -0.9001054 0.2220404 1.3439596 1.9037995 -0.86329275 3.6115751
-0.42057356 0.13944666 0.61872953 -0.3189499 -1.0722308 -2.6486921 5.931105 1.665434
-0.26112145 -0.598973 -0.13095425 -0.99016064 0.4807864 1.0492744 0.5004083 0.4457168
0.13451755 -0.19329938 0.3542597 -0.24324092 0.44550258 0.40981093 0.46690065 0.2101662
0.26336348 0.31607696 0.7248004 1.7055804 0.20882304 0.29863995 0.61733466 1.038992
0.11052574 -1.234083 -1.111438 -0.32400423 -0.03134655 0.3962469 0.17342556 0.71554244
0.25283307 -4.500386 -0.56055534 0.8783617 0.9162443 -0.2124309 -0.8354369 -1.6292568
-0.5073676 0.6633188 0.62343544 0.27390045 -0.8232264 -0.60201263 -0.3182909 1.6835911
0.004294689 -0.29516298 -0.1148459 0.097983375 -0.014190057 -0.8872701 -1.3945905 0.0049377983
0.48257807 -0.9522341 0.728182 1.4478784 0.03178864 -0.9820604 0.5222735 -1.1369424
-0.620392 0.5756494 0.79462373 0.11299221 -0.30808416 0.26044238 0.301063 0.39704573
0.3575123 0.5889744 0.59025764 -0.11265786 0.04853669 -0.035913624 -0.12498184 1.3468711
1.036994 0.7724614 0.11204291 0.05286942 0.596052 0.7918901 0.73659176 0.42442226
0.26714474 0.20751488 0.36110005 -1.2192017 0.39953965 0.20607497 0.43148202 -0.7462994
-0.5642315 0.8955873 1.1002574 0.41436094 0.9689062 1.2254131 1.3033729 2.3215895
-3.3054428 -0.87667716 1.5464745 -0.30286577 -0.607668 0.3290033 -0.54510635 -2.7219203
1.1390997 1.7922714 0.09003992 -3.5499802 -0.32976717 -1.1829226 0.898657 0.32209516
0.38160965 0.56259876 0.118704185 -2.404426 1.6307517 0.64330333 0.7830617 0.26206678
0.3532892 0.17505804 0.5381048 2.9469984 3.8572156 2.51809 -0.35907027 -0.12580156
0.7287857 0.34312844 1.3659041 -0.047218826 0.30339074 0.39202768 0.7226794 0.5277235
0.6677133 -4.6387596 -1.2036214 0.3719887 0.64605033 -0.4898527 -2.0816262 3.434575

rnn.weight_hh_l0 f4 [32, 8]
00000000: 9565 54bf e019 cb3f 84dc 8a3e 71c7 49be
00000010: d9d3 363f 5be4 ff3e 5492 673f 8c8c 0a40
00000020: b4ae 9bbf 839c fabe 5ce9 4d3f a92d 2b3f
00000030: 96b7 f93e edcd 103f 8779 303f f487 e2bd
00000040: 66d8 53c0 b16f 213f fca4 80bf 2e5b 643f
00000050: b0f1 063d a6fe 2b3f 0a34 da3e e11b 3b3e
00000060: 28ab cb3e 5a0b 1440 f962 26bf 3d11 0cbf
00000070: 2a1c e23e c152 183e 56b2 a03e 7cfd 703c
00000080: 5025 8cbe aed9 b5be c68a 4c3d 8e95 983e
00000090: 9767 8e3e cead 2cbc 64ac 563e 8d49 bcba
000000a0: 1b3a 46bf ce74 593f a88d 24c0 4976 d23e
000000b0: d256 f43c 2c87 f7be 7d94 a6be 4531 0540
000000c0: 270f 62be 0a4f e73e 12a0 0cbf 4b09 3d3e
000000d0: de0d a0be 88a3 00be fb58 a23d c5a1 ae3f
000000e0: c24c 1e3f 9748 9f3e 25c5 8abf 19bf 9e3f
000000f0: 55d7 173d 5d58 51bd 754c 193f 2552 e13d
00000100: 783d 163f a294 2bbd cea9 903f 1efa 893e
00000110: cc9e 043e 7eef c53d b4d7 b9bd 87ad 2dbf
00000120: 0fc5 10bf 2c4d 8ebe cb91 cf3e 7257 693f
00000130: 0857 133f cd02 0bbf ed72 683e 0e9e 993e
00000140: 624c c7bf 6c5d 003f efcb 43bf de17 aebe
00000150: fca7 f3be 715c 81be 9051 33be 1e3b a03e
00000160: 4d10 993d 45ed 5f3f 2de0 d03f 5285 9abd
00000170: 4342 69be 748f 123e 874c 593d 726e 29be
00000180: 84ea 873e bcb1 4cbd 253e b23e a5d6 3abe
00000190: 081f 8f3e 6c64 82be e211 35be 93b4 c03e
000001a0: c682 30bf 75ca 7fbf 765b 983f 4709 50bd
000001b0: 2c09 66bd 3e90 dc3e f814 84be df68 b6be
000001c0: 7eca 0f3f 95b7 4ebf 38df 02bf b8d6 3ebe
000001d0: d6e1 dabe 38a0 f6bb d814 c8be 6dd7 7c3f
000001e0: 8066 bcbe c14e c6be 83ba 13bf 11e7 cb3e
000001f0: 2eaa ecbe 021d 193f f66c 383f b739 46bf
00000200: e4ca 10be d7f1 c6be 447f 8abf 9b30 373c
00000210: affd e33d 893d 90bd b48a 8bbd 0939 523e
00000220: f01a 5abf 3dbb 18bf d171 cb3e 0e1d 383e
00000230: 162d 933e 49ea a0be 669a ad3e bd67 663b
00000240: 45f1 8f3f d8af 273f 8de2 8a3c d203 183f
00000250: e0d4 613e 59f8 2ebe 68f9 bdbc 9ebb 793e
00000260: ee39 f93e 0d94 6fbf 99d6 7b3e a114 153e
00000270: 6110 bd3e e8c5 53bd 7482 5bbd 5cee 093e
00000280: 5243 b9be 8073 11bf 2623 103e 10cf e13d
00000290: 72f2 83be 36fa a6be badd 433d 85d5 c9bd
000002a0: a59f c6bd dadb 85bf 1a5a 5e3f be12 c4bd
000002b0: f1e2 78bd f5e7 5dbd 5d08 3cbf 7fed ebbe
000002c0: c6bc 2a3e 4808 8cbe cf55 b0be b4e5 de3e
000002d0: 71c9 ad3d 74b0 a6be e159 68be 36c0 e5bd
000002e0: 7626 85be 91a1 c63e 166f e73e 2a62 19bf
000002f0: 726b 08bf 4786 3e3f eaa0 7cbe 1a1b 093f
00000300: 64c7 03bf c677 f13e 97df 043e 56da b33d
00000310: ff61 8a3e 9345 a23d 1ab1 993e 4902 5d3f
00000320: 81b6 92bd f6f2 7abf e24b bebf 2bad 98be
00000330: 333e 4b3f 99ec 09bf e98a 633f ffbd 04bf
00000340: 9194 c7b9 c646 3840 66a7 1ec0 9590 a93f
00000350: 3a32 133e 28f3 cd3d daf8 3d3d fe84 b83e
00000360: 2c60 19be b264 cb3f e31c cf3f 9b34 d4bd
00000370: 0d0f 31be c5bd 663d adf2 5c3e b61b 22bf
00000380: 43ce 7dbe b535 193c 55dd 853f d6f4 4e3d
00000390: 6924 05bf 2a63 4cbe cf7a 6c3e 47e6 023f
000003a0: 8d42 6ebf 9a6c f5be 4f77 a0c0 eecc 9c3e
000003b0: 4513 ab3e d00b 1c3f 5d0d 39bd 7774 e63c
000003c0: c4db b5be 4031 20bf 1c18 04bf b2ec e73e
000003d0: 8b68 04be 8225 363e 5158 283f 2633 393f
000003e0: 27a8 74be 1af5 2a3e 8948 ff3f 0de1 503f
000003f0: 3554 1cbf c7e6 07bf cf15 b03f 1112 b63f
-0.829675 1.5867271 0.27121365 -0.19704987 0.71417004 0.4997891 0.90457654 2.1648283
-1.216269 -0.48947534 0.80434203 0.66866547 0.48772877 0.5656422 0.68935436 -0.11061087
-3.310083 0.6306105 -1.0050349 0.8920163 0.032945335 0.6718544 0.42617828 0.18272354
0.3977902 2.3131928 -0.6499477 -0.54713804 0.44162112 0.14875318 0.3138606 0.014708873
-0.27372217 -0.3551764 0.049937032 0.298016 0.27813408 -0.010539485 0.209642 -0.0014365182
-0.7743241 0.84943855 -2.571146 0.4110587 0.029826555 -0.48345315 -0.32535163 2.0811322
-0.22076093 0.4517749 -0.5493175 0.18460576 -0.3126058 -0.12562382 0.07927128 1.3643118
0.61835873 0.3111007 -1.0841414 1.2402068 0.03707059 -0.05110966 0.5988229 0.11001996
0.58687544 -0.041889794 1.130182 0.26948637 0.12951201 0.0966482 -0.09074345 -0.67842907
-0.5655069 -0.27793252 0.4054092 0.91149056 0.57554674 -0.5430115 0.2270009 0.300034
-1.5570185 0.5014255 -0.7648305 -0.34002584 -0.475891 -0.2526584 -0.17511582 0.31295103
0.07473812 0.8747142 1.6318413 -0.0754496 -0.22779183 0.14312536 0.053051498 -0.16546038
0.2654611 -0.04997419 0.34813038 -0.18245943 0.27953362 -0.2546724 -0.17682603 0.37637767
-0.68949544 -0.999183 1.1902912 -0.050790098 -0.05616109 0.43078798 -0.25797248 -0.35626885
0.56168354 -0.80748874 -0.51121855 -0.18636596 -0.42750424 -0.007526424 -0.39078403 0.98766214
-0.3679695 -0.3873196 -0.5770647 0.39824727 -0.46223587 0.5980989 0.7204126 -0.77431816
-0.14139897 -0.38856384 -1.0820088 0.011181022 0.11132371 -0.07042987 -0.06813565 0.2052957
-0.85197353 -0.596607 0.39735273 0.17979833 0.28745335 -0.31428745 0.3390686 0.0035157048
1.1245505 0.6550269 0.016953731 0.5938083 0.22053862 -0.17086925 -0.023190215 0.24387977
0.4867701 -0.9358528 0.24593581 0.1455865 0.3692656 -0.05170241 -0.053591207 0.13469833
-0.36184174 -0.56816864 0.14075908 0.11025822 -0.2577091 -0.3261277 0.047818877 -0.09855179
-0.096984185 -1.0457718 0.86856234 -0.09573887 -0.060763303 -0.05417629 -0.7345026 -0.46079633
0.16673574 -0.27350068 -0.34440467 0.43534625 0.084856875 -0.32556498 -0.22690536 -0.11218302
-0.26005906 0.3879514 0.4520194 -0.5991541 -0.5328895 0.7442364 -0.24670759 0.5355698
-0.5147612 0.47161692 0.12975918 0.08781879 0.2702789 0.079234265 0.3001793 0.8633161
-0.07163716 -0.9802698 -1.4866908 -0.29819617 0.79391783 -0.53876644 0.88883835 -0.5185241
-0.00038066928 2.8793197 -2.4789672 1.3247248 0.14374629 0.10056144 0.0463799 0.36038965
-0.14978093 1.5890105 1.618069 -0.10361596 -0.17290898 0.056333322 0.21576948 -0.63323534
-0.24785714 0.009351184 1.045817 0.050526462 -0.5200868 -0.19959703 0.23093723 0.51132625
-0.930703 -0.4793442 -5.014564 0.306251 0.3341314 0.60955524 -0.04517876 0.028131707
-0.3551923 -0.6257515 -0.5159929 0.45297772 -0.12930505 0.17787746 0.6575976 0.7234367
-0.2389227 0.16695061 1.9944011 0.815934 -0.6106599 -0.53086513 1.3756655 1.4224263

rnn.bias_ih_l0 f4 [32]
00000000: 8057 433e 8c35 7c3d c694 c53e ddfb 82be
00000010: 8c47 64bd 6bcb f53d 7476 fa3e ac23 453e
00000020: 8410 9bbe 3304 60be d919 c2be b10e 913e
00000030: e551 853e 4f92 f1be efe7 1bbf 61d9 36be
00000040: 30c0 133e 5058 8a3e bd7b 043e d642 ae3e
00000050: ec6b 503e 9d51 c13e c7f9 16be 2ec6 d63d
00000060: 7832 bcbd 52e7 343e 5e7b ca3d b4c3 c63e
00000070: 83ec 55be f355 f93e 7513 263f 3b55 4fbe
0.19076347 0.061574504 0.38590068 -0.2558278 -0.055732295 0.120016895 0.48918498 0.19251889
-0.30286038 -0.21876602 -0.37910345 0.2833152 0.26039043 -0.47181937 -0.6090078 -0.17856361
0.14428782 0.27020502 0.12937827 0.34035367 0.20353669 0.37757578 -0.1474372 0.104870185
-0.09189314 0.17666367 0.09886812 0.38821185 -0.20891003 0.48698387 0.6487344 -0.20247357

rnn.bias_hh_l0 f4 [32]
00000000: 2ac8 b1be 0766 0f3f f37c 8a3c 30ff 34be
00000010: 5d3b 6cbe 2855 e93d affe 893e 5007 4a3e
00000020: 8ec5 98be d862 0cbe 713d 31be 302c 83be
00000030: 2330 fdbd 0012 383d 57d3 11bf afe9 91be
00000040: eb7d 42be 9536 643e 68dd 12bd b143 633d
00000050: c3f0 663e e3b3 5cbd cae5 0dbe 8fed 1f3d
00000060: be74 f93d e3b1 1f3d 100b b33e f0f0 763d
00000070: 58f6 79be baba 43be b235 173f 8ab2 abbc
-0.34723026 0.56015056 0.016905284 -0.17675471 -0.2306952 0.113931954 0.2695212 0.19729352
-0.29838222 -0.13709581 -0.17308594 -0.2561965 -0.12362697 0.04493904 -0.56963104 -0.284986
-0.18993346 0.22286446 -0.03585568 0.055484477 0.22552781 -0.05388249 -0.13857189 0.039044913
0.1218047 0.038988005 0.34969378 0.06028837 -0.24410379 -0.191142 0.5906631 -0.020959157

reg.0.weight f4 [8, 8]
00000000: f1fc 153e e4b5 f9be 68cb 923d 38c7 983e
00000010: 1446 27bb af41 3f3f b2c3 2a3e ce96 d63e
00000020: 9f6a 1e3f 62df 06bf 5547 383c 1ce5 d3be
00000030: f048 d93e 33b3 94bf f03e 453f 2be1 1b3f
00000040: 6999 df3d 0384 16bf f36f f4bc c749 49be
00000050: cecc af3e 300f bb3e f7bd 513f 30b5 a53e
00000060: 3bfd 42bc 1c68 153f fe90 a93e 44c3 aebe
00000070: 66bc a6be e181 06bf 8397 dcbe 431d e23c
00000080: 281f 1d3f 98dc 18be 96c8 aa3e bcaf 093f
00000090: d149 303e 9e28 5bbf 66e7 ee3c 2a97 6c3f
000000a0: 5a18 89be 8c7e 753f ddbc 6abe 63a4 febe
000000b0: 0f28 3fbe 4491 173e e4d2 4b3c 36b5 1dbf
000000c0: d1dc 7cbe bfef f7bc b59f ab3e 9c51 1f3e
000000d0: 44c9 e83e 208d f0bd 635c b83e d4fe a0bd
000000e0: 9a96 4dbf 5de7 25bf c1f6 723f fcd1 5a3d
000000f0: f3ca 0c3f 165d e03f 714e 953e 1f12 b6be
0.1464727 -0.48771584 0.07167703 0.29839492 -0.0025523948 0.747096 0.16676214 0.4191193
0.6188144 -0.52684605 0.011247476 -0.41385734 0.4243846 -1.1617187 0.7704916 0.60890454
0.109179325 -0.58795184 -0.029838538 -0.1965705 0.3433594 0.36535025 0.8193049 0.32364798
-0.011901195 0.58361983 0.33118433 -0.3413335 -0.32565612 -0.5254193 -0.43084344 0.027601844
0.61375666 -0.149279 0.3335616 0.53783774 0.17215659 -0.8560885 0.029163074 0.9241816
-0.2677639 0.9589622 -0.22923608 -0.49734792 -0.18667625 0.14801508 0.012440417 -0.6160463
-0.2469361 -0.030265687 0.33520284 0.15558475 0.45466053 -0.117456675 0.36007985 -0.078611046
-0.80307925 -0.6480616 0.94907767 0.053422913 0.54997176 1.7528408 0.2916141 -0.355607

reg.0.bias f4 [8]
00000000: 42c1 29be aa88 163d 0bb1 813e 04df 3dbe
00000010: 8367 d2bc 3809 1f3e d545 5fbd f3e3 573e
-0.16577628 0.036751427 0.25330386 -0.18542105 -0.025684124 0.1553086 -0.054509956 0.2108305

reg.2.weight f4 [7, 8]
00000000: 964c a53d 40a7 9cbd 6f89 29be 9f11 9ebe
00000010: 5248 fb3d 581a e03e b5fa 4cbc 96bf b0bc
00000020: c683 c6be 6815 16be 5c79 713e af23 3c3e
00000030: fb54 02bf fdf1 e73e a62e a73c 52bc 4b3e
00000040: 763e 01be e18e 15be 544e f0bd 80ca f3be
00000050: d6be 2dbf bb28 0c3f aa43 6a3e 667b 463d
00000060: ee97 a63e ea40 4ebe a987 0b3f c082 f7be
00000070: 8181 5fbd c8db c5be 1bb8 06be 0697 c23d
00000080: 1a63 f33e b40d 203f a6d3 813c 8328 96bd
00000090: ba5f 7e3e b52c 07bf 5a39 913e 2b51 9f3e
000000a0: c791 19bf 736a 023f 98a3 993e 6f99 1ebe
000000b0: 68ba fd3e dddd 553d e1d6 7f3e 0b0e bb3e
000000c0: 90a0 1dbe 2e0b bf3d 6db0 d83e 46a5 6d3d
000000d0: 9493 aebd 707e 823c e5ac d63e d648 56bf
0.08071248 -0.07649088 -0.16556333 -0.3087282 0.122696534 0.437701 -0.012510945 -0.02157573
-0.3877241 -0.14656603 0.23581451 0.18372987 -0.5091092 0.4530181 0.020407986 0.19896057
-0.12621483 -0.14605285 -0.1173369 -0.47615433 -0.6786932 0.5474965 0.22877374 0.048457526
0.32537788 -0.2014195 0.54503876 -0.48341942 -0.054566864 -0.38644242 -0.13156168 0.09501462
0.47536546 0.6252091 0.015847992 -0.07331946 0.24841204 -0.5280259 0.28364068 0.31116614
-0.59988064 0.5094368 0.30007625 -0.15488218 0.4955628 0.05221354 0.24984314 0.3653415
-0.15393281 0.09328304 0.42322102 0.058018945 -0.08524242 0.01592943 0.41928783 -0.8370489

reg.2.bias f4 [7]
00000000: f9a2 d0bd 1e64 54be 32c5 19be 067b c2bd
00000010: 833f 2b3e 3d34 e1bd c116 e53e
-0.101873346 -0.20741317 -0.1501663 -0.09496121 0.16723447 -0.10996292 0.44743922
